bmt_exm/S20_model.pth (torch, 926980 bytes, 26 tensors)

conv1.weight f4 [64, 20, 3]
00000000: 9d06 893d a13b 9d3d a23a 48bd d2d1 b83d
00000010: 68c0 83bd fda6 8b3a 574a 42bd b041 693d
00000020: a58c bd3d d9be b9bd 8b1c bc3d fac8 c03c
00000030: 652a eb3d 3d73 f23c 015b 893d b25e 61bb
00000040: 6ddf ec3d 454f 1d3d 96ef 4cbc 6e62 a13d
00000050: a9d2 11bc a72f 92bc 35be 6cbd 0828 993d
00000060: 91cf 3dbe 5044 11be a0b1 ecbd 71d8 bebd
00000070: c3a7 3c3b 6f6c 04be bcac 153e 2439 73bd
00000080: 59e4 023e 544d d43d fc80 2d3d 906c 2c3e
00000090: 0aeb ccbc 6792 a13d ff62 b3bc 9a8a d9bc
000000a0: a451 6c3d 80e0 06bc 25aa da3c aa59 c03d
000000b0: 5e79 973d e808 c2bd f29a 8f3d c9dc 2a3d
000000c0: 15be 1a3e 614a 4e3c c66d 19bd 50fd 64bd
000000d0: 6781 06be 57a0 d03c 3e05 133d 5c6f b53d
000000e0: 096c a73d f1f1 29ba 59e2 8a3d 9e99 cabd
000000f0: 6dac 933d 4167 91bd 9f21 aa3c 3902 9fbb
00000100: 4797 9f3d 23e3 fcba f6f7 7c3d cf3f ddbd
00000110: a7a8 8ebd db99 3ebd 23b3 0b3e b40d 253d
00000120: 9b29 8a3d 6aa3 10be 555a 21be 08d6 123d
00000130: 1ce7 8d3d 8a0d 673e 35a3 333e 04c6 773e
00000140: 3934 873d 7132 94bd e4a1 b03d 641b 17bd
00000150: 34f5 ec3d ffa2 e83b a956 c03d b93e 10be
00000160: 40b6 f7bd c4c5 e2bc 3278 d53d 6dec ed3c
00000170: 208e 013e 86e9 393e a861 213c 25d3 0e3d
00000180: fe4b 453e 422f 3d3d 76c7 4c3d 8976 2abe
00000190: 7d3f f6bd e6be 22bb c181 85bd a63e 05be
000001a0: f84b 05bd 1e2b a0bd c25f a3bd 5b63 e4bc
000001b0: 47ec 86bd d838 5ebc fdf1 5c3e f0b7 7ebd
000001c0: b105 1ebd 996a 3bbe 6c07 05be 5cb6 9dbd
000001d0: 9bcc 8bbc e813 a6bd 280f 13bd 9a10 90bd
000001e0: a244 a73d 1c69 d43b 3c33 3b3d f77b 5abd
000001f0: 02ee 85bd 084a 60bc 5a1d 2bbd dccc cabd
00000200: ff96 ba3d 0ef9 073c a524 d43d e8fa 703d
00000210: 1206 3dbe 80e0 063c c7c0 ecbd ed6a b2bd
00000220: 4dcf 0abe 475d 20be 169e 03bd 1cda e9bd
00000230: beb0 41bd df76 b1bd 9043 c83d b364 adbd
00000240: e45f 27bd 1044 26bb 8e14 5b3d 9acd bd3c
00000250: 1268 483d 678b 34be 92ac 16bd 976d febd
00000260: 8f41 c9bd 851c 5ebe 28f0 8d3a 16ec 57be
00000270: bbf8 283d aa2d 223c 6f9a 9c3c 85ee 8ebd
00000280: 659c e53d e682 513c fbfe 133d 8a0d 94bd
00000290: 178a a03d 661f 08bd 5fe7 c2bc 6973 023e
000002a0: 9dc3 c73c 49b6 8bbd 5443 88bd 6cd0 023e
000002b0: e639 643e 1f2e e23d c9d8 dcbd b4a9 a5bd
000002c0: 9e88 13be a380 9f3d db8f d63d 0b07 bebd
000002d0: 15b9 82bc 2fa1 8a3d ac6c 25bc 19f1 c7bd
000002e0: de60 053d 084a e13c 263d 9a3c aa85 88bd
000002f0: 4f5a abbd 687c e2bc e533 29bd 37fb 8fbd
00000300: 0fee f73d fac4 113e 74c2 2e3c 3b66 e9bc
00000310: f350 b737 02e2 ab3a f83e 2c3d f0d6 1c3d
00000320: 24c7 e1bd dca6 aebd 1487 943d c8b0 b53c
00000330: 6060 a33b c979 afbd 8206 b6bd e656 63be
00000340: a247 1dbe b401 6fbd 8f6b ca3d 5c5c 823d
00000350: 22c5 fcbd 7245 903a 8908 9b3d bdf6 713e
00000360: 0014 43bb 9c3f 85bd 9bef 533d 9385 f4bc
00000370: 6035 9bbd 68dd cc3d 4f1b a93d 1d04 fa3d
00000380: a35d c03c b644 6e3e 35a5 703e 58c2 453e
00000390: 0180 a6bc c89a 4fbd f574 08bc f941 c83d
000003a0: 09da 803d 8fef cd3d 328c 0c3e 3e7f c83d
000003b0: dcbc 793d fefc 0fbe a303 0abe 4b5f 1dbe
000003c0: 5f23 d13d 0372 f6ba 1723 413d 10bb e5bc
000003d0: e383 a43c 58f2 1fbd 4ac7 c8bc ee60 b73d
000003e0: f43b ff3c 0882 063e 24a5 0e3d 5caa babb
000003f0: dfe1 0a3d 0ed6 40bd 41e2 febc 1652 bdbd
0.066907145 0.07677389 -0.04888404 0.09024395 -0.06433183 0.0010654625 -0.047434177 0.05694741
0.092553414 -0.090696044 0.09185132 0.023533333 0.114826955 0.029595966 0.06706811 -0.0034388718
0.115660526 0.038405675 -0.012508294 0.07880102 -0.008900323 -0.017844988 -0.057798583 0.074783385
-0.18536212 -0.14186215 -0.11557317 -0.09318627 0.0028786517 -0.12931989 0.14616674 -0.059380665
0.1278242 0.10366312 0.042359337 0.16838288 -0.02501442 0.07889252 -0.021897791 -0.026555348
0.057695046 -0.008232236 0.02669246 0.09392102 0.07396196 -0.09474355 0.07011975 0.041714463
0.15111573 0.0125909755 -0.037458204 -0.05590564 -0.131353 0.025467081 0.03589367 0.08859131
0.08174903 -0.00064828905 0.06781454 -0.098925814 0.07210622 -0.07099772 0.020767985 -0.00485256
0.07792526 -0.0019293766 0.06175991 -0.10803186 -0.06965762 -0.046533447 0.13642554 0.04029627
0.06746217 -0.14124838 -0.15757115 0.035848647 0.06928846 0.22563758 0.17542727 0.2419663
0.066017576 -0.072361834 0.08624628 -0.036891356 0.11570206 0.007099509 0.09391529 -0.14086427
-0.12095308 -0.027682193 0.10423316 0.0290434 0.12651873 0.18155488 0.009849943 0.034869332
0.1926727 0.046187647 0.04999491 -0.1664678 -0.12023828 -0.0024833023 -0.06518889 -0.1301218
-0.032543153 -0.07820724 -0.07977249 -0.027879408 -0.06588035 -0.013563357 0.21576686 -0.062187135
-0.038579646 -0.18302383 -0.12991112 -0.07700798 -0.017065337 -0.081092656 -0.035903126 -0.070344165
0.081673875 0.0064822566 0.045703158 -0.05334088 -0.06539537 -0.013689525 -0.04177604 -0.09902355
0.091108315 0.008299125 0.10358552 0.058833033 -0.18459347 0.008232236 -0.11560207 -0.08711801
-0.13555641 -0.15660582 -0.032133184 -0.11418554 -0.047287695 -0.08665251 0.097785115 -0.084664725
-0.040862933 -0.0025370158 0.0534864 0.023169328 0.048927374 -0.17631303 -0.03678567 -0.12423246
-0.098269574 -0.21690567 0.0010829018 -0.21086153 0.041252833 0.0098985825 0.019116608 -0.06979088
0.112114705 0.012787556 0.03613184 -0.07229145 0.078388385 -0.03323307 -0.023791967 0.12739338
0.024385268 -0.068218775 -0.06653467 0.12774819 0.22287712 0.11043953 -0.10783536 -0.08089009
-0.14407584 0.077882074 0.10476657 -0.09278687 -0.015957395 0.067690246 -0.01009671 -0.097627826
0.032563083 0.027501121 0.018827986 -0.066661194 -0.08366834 -0.027647212 -0.041309256 -0.07030337
0.12105953 0.14235297 0.010666478 -0.02849113 2.1852995e-05 0.001311362 0.04205224 0.038290918
-0.11024311 -0.0852792 0.072523266 0.022179022 0.004985854 -0.085681506 -0.0888796 -0.22201118
-0.15359357 -0.058351234 0.098837964 0.063652724 -0.123422876 0.0011007024 0.07569987 0.2362928
-0.002976656 -0.06506273 0.051742177 -0.02984885 -0.0757854 0.100031674 0.08257162 0.12207816
0.02348215 0.23268399 0.23500521 0.19312418 -0.020324709 -0.05068472 -0.008328666 0.09778208
0.06291587 0.10055458 0.13725355 0.097898945 0.060971126 -0.14061353 -0.1347795 -0.15368383
0.102118246 -0.0018802289 0.047152605 -0.0280433 0.02008242 -0.039049476 -0.02450909 0.08954035
0.031156518 0.1313554 0.03482546 -0.005696578 0.033906814 -0.04707914 -0.031113746 -0.09244172

conv1.bias f4 [64]
00000000: caf5 afbd a3a8 303d 106d bc3d bc5f ea3b
00000010: 8004 853d e090 223d 81e3 22be fc60 02bd
00000020: fb23 22bd 116e 14bd 3b61 d63c d407 ce3d
00000030: ae19 973d 48cb 5c3d bb7c d7bd 9e09 e93b
00000040: 7745 afbc d0b7 81bd a789 f83c 7350 903d
00000050: 7568 87bc 5ac9 273d 5dd2 723d 6971 e03d
00000060: 00c9 13bd f3bc 6f3d a6f4 83bc 0019 e43b
00000070: 1d21 80bd 76c1 d1bc 64d2 e4bd 3f24 a3bd
00000080: 84f2 d2bd 5165 b73d 173a b4bd 7074 70bd
00000090: 12af 15bc 5420 183e b5fa 6c3d 0b26 32bd
000000a0: 2c1f 7c3d 3c21 a4bd a4b2 cb3c 04dd f73d
000000b0: 87bf b03d e863 1bbc bcbc b2bd e89e 3e3d
000000c0: 56d1 dd3d 2153 32bd dd33 d9bb 5a5c 9ebd
000000d0: 4bcf 043d ab4a 713d 60bb 813d f118 99bd
000000e0: 462f 03be 31bb 25bd f15c debd 856e a9bc
000000f0: d27e 813c 70f1 ccbd 19b2 2aba dfe3 a2bd
-0.085918024 0.043129575 0.092004895 0.0071525257 0.06494999 0.039688945 -0.15907098 -0.031830773
-0.039585095 -0.03623778 0.02616941 0.10060087 0.07377945 0.0539048 -0.10521837 0.007111742
-0.021395428 -0.063338876 0.030339075 0.070465945 -0.016529301 0.04096351 0.05928265 0.10959131
-0.03608036 0.058529805 -0.016107868 0.006960988 -0.06256316 -0.025604945 -0.11172941 -0.07965898
-0.103001624 0.089548714 -0.08800142 -0.058704793 -0.009135978 0.14856082 0.05785628 -0.04349331
0.061553165 -0.080141515 0.024865456 0.12102702 0.08630281 -0.009484269 -0.087274045 0.046538264
0.10830943 -0.04353631 -0.006628497 -0.077324584 0.032424252 0.0589091 0.06334567 -0.0747546
-0.12811002 -0.040461723 -0.10857571 -0.020682583 0.015807543 -0.10006988 -0.0006511524 -0.07953619

bn1.weight f4 [64]
00000000: 1ac3 873f 0859 7b3f e9dc 793f bfc0 623f
00000010: dcc8 863f 9086 7a3f 9c02 783f 78a1 7a3f
00000020: 9eeb 823f 81c7 8a3f afb9 803f 1e29 8c3f
00000030: c532 843f 30a1 7f3f 6c78 883f 24ed 573f
00000040: 83be 813f 8d62 7e3f 8f08 673f f9e9 8c3f
00000050: a00d 7f3f 3fee 763f f724 823f 9f49 813f
00000060: 8ea6 813f 54b2 733f 27f9 823f 6ee6 683f
00000070: bc60 6a3f 2554 843f 1df2 723f 2de2 7d3f
00000080: 8920 833f 7094 763f 9355 853f d658 7b3f
00000090: 6eae 813f 16a4 7c3f d847 873f 24cf 893f
000000a0: 3e98 7d3f 4e4b 743f acc2 7b3f aee2 543f
000000b0: 1c71 833f be17 793f cd4e 803f 1b0c 803f
000000c0: 234c 833f 6035 6c3f 5ac2 7a3f 704a 5c3f
000000d0: 5264 7e3f 2a3f 633f 5c76 803f 79ff 653f
000000e0: b737 873f fd92 853f e089 5e3f 39f4 713f
000000f0: 6ac8 743f 372c 773f 1677 7a3f 4bdc 793f
1.0606415 0.98182726 0.9760271 0.8857536 1.0530047 0.97861576 0.9687898 0.9790263
1.0228155 1.0842134 1.0056666 1.0950048 1.0327994 0.9985533 1.066175 0.8434622
1.0136265 0.99369127 0.90247434 1.1008903 0.99630165 0.96457285 1.0167531 1.0100592
1.0128953 0.9519398 1.0232285 0.9097661 0.91553855 1.0338179 0.94900686 0.9917324
1.0244304 0.9632025 1.041674 0.9818243 1.0131357 0.98687875 1.05688 1.0766339
0.9906043 0.95427406 0.9834392 0.83158386 1.0268893 0.9730185 1.0024048 1.0003694
1.025761 0.92268944 0.97952807 0.8605108 0.99371827 0.88768256 1.003612 0.89842945
1.0563878 1.0435482 0.8692913 0.9451328 0.9561831 0.9655184 0.9783796 0.97601765

bn1.bias f4 [64]
00000000: d4c4 f9bc 52e9 03bd 092a 6dbc e040 9b3d
00000010: 4bce 993d adb0 803d bfb3 b7bc 72f3 8cbc
00000020: ad77 0a39 e207 043d edcf 493d c044 d53b
00000030: 1db8 cc3c 07c5 66bd 2a46 03be b525 fabc
00000040: 0533 2a3d 82ef c93c ec53 113e b6d5 943d
00000050: 84b0 c8bb a71a f9bc 52ce 4c3d 65fc cc3c
00000060: ce16 9ebc ba80 953c ebfb a3bc 96ab 6fbd
00000070: 9782 b03c d952 92bd 3661 29bd 4aa0 b33c
00000080: 74f3 7abc b077 d1bb 5517 21bd 04e5 f6b9
00000090: d053 27bd b53f 03bb affe f83c 1ef1 80bb
000000a0: 0432 81bc 451d 79bd 808d 8ebc 5364 eb3d
000000b0: d19f 8bbc 5122 d23d a030 f2ba bb43 bb3c
000000c0: c5ae 0c3c 5eea 0c3c 60ae 063d 6997 103d
000000d0: 8de9 dbbb fa71 c5bc aed4 5839 dcac 903d
000000e0: f112 4ebd bd51 0abb 3538 3bbc e3e6 70bd
000000f0: ffcb 5ebc f3b8 87bd efbc 8cbd 9cd8 223a
-0.030489363 -0.032204933 -0.014475354 0.07580733 0.075100504 0.06283698 -0.022424577 -0.017205928
0.00013205288 0.03223408 0.04927056 0.00650844 0.024990136 -0.056340244 -0.12819734 -0.030535558
0.041552562 0.024650339 0.1419217 0.072673246 -0.006124558 -0.030408217 0.05000145 0.025022695
-0.019297983 0.018249858 -0.020017585 -0.058513246 0.021546645 -0.07144708 -0.041352473 0.021927018
-0.015316833 -0.0063924417 -0.03932889 -0.00047091406 -0.040851414 -0.0020026986 0.03039488 -0.0039349934
-0.01577092 -0.06081893 -0.017401457 0.11493745 -0.01704398 0.102604516 -0.0018477626 0.022859445
0.00858659 0.008600799 0.03288114 0.035300646 -0.006711191 -0.0241022 0.00020678595 0.0706422
-0.050311033 -0.0021105849 -0.011426975 -0.05881394 -0.013598441 -0.06627073 -0.06871974 0.0006212087

bn1.running_mean f4 [64]
00000000: 4ea4 adbd d29a 2f3d 72bb b83d 11a7 2b3c
00000010: d049 813d a317 2d3d e0d0 24be a39b 07bd
00000020: 68bd 12bd b09e 04bd 5976 f33c 9424 d03d
00000030: 1a46 983d b697 593d 4c21 dbbd ac31 a93b
00000040: 7c7f b3bc 113f 7dbd 2f9f e93c a557 8e3d
00000050: 68a4 8ebc fb0a 263d 5aac 733d efca e63d
00000060: 2665 15bd 5138 733d 0d8c 8fbc 0835 3f3c
00000070: f878 7ebd 2411 cebc 43ee e3bd 1548 a6bd
00000080: 40f0 d2bd f47e b93d cc5c b2bd c8b1 6dbd
00000090: 0119 edbb 3aed 183e d44d 7a3d cf16 3fbd
000000a0: 6bd9 7f3d 4fa5 a2bd eb28 ed3c 8b00 013e
000000b0: e443 b73d 42b0 0abc a315 afbd 962b 393d
000000c0: 1c83 de3d 026b 3ebd 0a57 56bb 0223 a7bd
000000d0: c0bb 073d 0d6c 6b3d 29ad 853d b5d6 98bd
000000e0: 3357 04be 0a76 0cbd 7938 dabd 0b00 b7bc
000000f0: 47fb 983c d52f c8bd 6449 68bb 2ba0 a0bd
-0.08478604 0.042872258 0.09020127 0.010476843 0.06312907 0.04225887 -0.16095304 -0.03310741
-0.035825163 -0.0323779 0.029719518 0.10163227 0.07435246 0.0531232 -0.1069971 0.005163392
-0.021911375 -0.061827723 0.028518287 0.069503106 -0.01741238 0.040537816 0.05949054 0.11269175
-0.036473416 0.05937988 -0.017522836 0.0116703585 -0.062127084 -0.025154658 -0.11129429 -0.08119217
-0.1029973 0.090574175 -0.08709106 -0.058030874 -0.0072356467 0.14934245 0.06110938 -0.04665261
0.062463205 -0.07941686 0.028950175 0.12597863 0.08948496 -0.008464875 -0.08549049 0.045207582
0.10864851 -0.04648877 -0.0032705688 -0.08160974 0.033138037 0.057476092 0.06527168 -0.07462827
-0.12923889 -0.03429226 -0.106553026 -0.022338888 0.018674506 -0.09774748 -0.0035444135 -0.078430496

bn1.running_var f4 [64]
00000000: b2dd e23b 2515 1e3c b061 a03c 30cb 903c
00000010: 3b6a 523c d5be 5c3c 873b 8d3c b8fb 893c
00000020: eab8 993c 9804 8e3c 83a9 553c 4155 2c3c
00000030: 9f6d 453c 7538 5b3c 8222 e13c 9145 2c3d
00000040: 3ae5 6f3c 2267 0d3c e327 953c 679d 333c
00000050: 9c62 413c cf67 a43c b22e 463c 2eeb 2b3c
00000060: b580 8e3c 0bbc 783c eb3f 5c3c 33a9 0e3d
00000070: f1af 443c f676 aa3c 1a76 513c f8ad 6b3c
00000080: 332c c13b a311 113c 0f0f 4e3c 80ff b83c
00000090: 8560 6f3c db1b 723c 3717 213c 4770 903c
000000a0: fdeb 093c 0e3f 103c 579d a63c 0ec0 2c3d
000000b0: 78d6 2d3c 9bf4 d73b 6866 5e3c a325 9c3c
000000c0: e621 fa3b 989a 093c 64de 393c 118a eb3c
000000d0: 0891 453c 7258 843c 2bbb 093c 693e 013c
000000e0: bea5 0a3c 9edb 103d 1a7d e93c 3349 ac3c
000000f0: b678 863c 9fad c83c 027b b33c c959 8b3c
0.006923401 0.009648596 0.019577831 0.017675012 0.01284271 0.013473232 0.017240299 0.016843662
0.018764932 0.017336175 0.013040903 0.010518373 0.0120500615 0.01338016 0.027482275 0.04205853
0.014642054 0.008630546 0.018207496 0.010962821 0.011803295 0.020069031 0.012096094 0.010493083
0.017395357 0.015181552 0.013442974 0.03482933 0.012004838 0.020808678 0.012784505 0.014384739
0.0058951615 0.008854303 0.012576832 0.02258277 0.014610414 0.014777149 0.009832195 0.017631663
0.00841808 0.008804096 0.020338697 0.042175345 0.010610215 0.0065904385 0.01357422 0.019060915
0.0076334355 0.008398674 0.011344526 0.028752359 0.012058504 0.016155455 0.008406441 0.007888415
0.008462368 0.035365693 0.028502036 0.021030998 0.016414981 0.024496851 0.02190924 0.017010586

conv2.weight f4 [64, 64, 3]
00000000: 1abe 9fbc e9f7 13bd d83e e63a 7978 07be
00000010: e12a 79bd 8484 b4bb 207e c93d 615e 8c3d
00000020: 041a a43c bc6a 483d 1ed0 033e d6bf 3e3d
00000030: 9b5d 9c3d 11cf 72bd 8d01 4ebd c45e 263e
00000040: f81a fb3d fdf2 343e bfdf f63d 4383 c03d
00000050: ba2c f13d d272 74bc 11b6 93bc 43ba 643b
00000060: 3e36 64bc 67b2 25bd 3abf 1e3c 6adc 2d3e
00000070: c7c6 953d ce9b 2b3e 8e2e 393e bc0d 1d3e
00000080: f081 f93d ca6b c83d 2ab2 263e 2207 ca3d
00000090: 20a8 cc3c 9740 003e a529 fc3d 75df 3bbd
000000a0: 992f 0f3d 99a4 04bd ac16 973d 330a e83d
000000b0: 1b86 f03c 1c8c fbbc 6902 5a3d 39f4 ffbb
000000c0: 629e 183b 2adb 6cbc 971a a93d 13e0 293e
000000d0: 0cf6 b43d 7d54 043e 1379 cc3c 4ad6 86bc
000000e0: e2a6 6e3d 47e9 26bd ced3 3d3d ff1b b83c
000000f0: ea31 f2bc e46d 043d f9bc c3bc 4513 593d
00000100: 227f 0bbd ed9e 1c3d cb4b 1d3a 634b 0a3d
00000110: c982 913b ded6 813d cc8f fa3c 0b5f 113e
00000120: 9326 6f3d fc60 313d 76bd 413d c969 503d
00000130: 4b7f c33d 7bfd f03c aa99 fdbc bc35 58bd
00000140: 31be e7bd 5a61 013d 6e48 b43c be32 cfbc
00000150: b8d8 a3bd 12a7 99bd 711c 99bd 516a d63d
00000160: 3b54 cf3d 21c3 0e3d fc96 ac3d 3f56 6a3d
00000170: cc52 c23d 13da 6ebd a73f 74bd cb0e 86bd
00000180: dbbd 8d3d 7b03 363a 9795 c0bd 82a6 47bd
00000190: ef37 f9bd 9b51 2bbd b14e 8d3d 2c42 873c
000001a0: c016 bb3c 0bf4 edbd 87c5 78bd 40ec bcb9
000001b0: 456d 913d 346f 8f3d af91 093e ca30 ec3d
000001c0: 9852 083e 5d86 333d 4161 c33d 4eba a53c
000001d0: 741c 9e3d c39d 7e3d b5f9 9cbd 6ae4 bfbb
000001e0: 682e 5fbc 7bc6 093e ccc9 fc3d 1b00 0e3c
000001f0: 2d61 3fbd b94f f1bb c368 e73b 8b23 5d3d
00000200: fef0 c93d e904 febc 055a 893c 9acf 623d
00000210: a3bc 573d d65f 693d 2d67 093e 2576 323d
00000220: f5fe 9f3d d7af c53d 3bba 80bd f7ec afbc
00000230: a621 ccbc cbc2 013e 940c cd3d cc12 203e
00000240: 0a0e 6dbd 0d9c d3bc e90c 22bd c1ef 893d
00000250: 56aa 91bd eea1 683c b870 983d f5b6 333e
00000260: 782e 303e e8df 41bc 2c89 d43c 6e4d 113d
00000270: 3c3f 703d d627 c03d 4437 893d 9731 e03b
00000280: 1bac 2f3d eff7 8fbd e875 323e 31aa d83d
00000290: 00f4 0e3e 9429 9b3d 3a50 8d3d 9b4d 033e
000002a0: b237 9dbd 23db 2cbd 0989 33bd 90a5 1f3c
000002b0: aaf5 3e3d 6b85 17bd 6d20 633c 28aa ad3d
000002c0: ec25 b03d 6ffe 25bd 64f9 d03c 23cf 40bb
000002d0: eded 7a3d f7d8 87bd a2ad 15bc bbfe adbc
000002e0: ef7f f5bc 735c 273c b274 a8bc 7ee8 aa3d
000002f0: 2c1b 573b 45f7 2a3e 0026 023e bbf4 323e
00000300: d526 33bd 9c16 843d d043 2d3d 8a8a e33d
00000310: 2cf4 ee3c 99f8 be3d 47b3 033c 6e74 cf3d
00000320: 0ba5 3c3d ee3b 79bd c551 2ebd 9961 35bd
00000330: 4aa0 bd3d 8501 2a3d 6679 a13c 84fc 733d
00000340: 104d 74bc 3bfd 493d 8f36 b93d 9e4d 213e
00000350: b7d8 0c3e c72f b63d 8d61 b73d 26c4 683d
00000360: 6223 e5bc 8580 b2bd 0737 07be 7f5b 133c
00000370: 3b2c c6bb f4da 2dbd bb5c 49bc f212 babc
00000380: a7da c5bc 2233 4fbd 2750 5dbd d3c3 7bbd
00000390: 4009 a83d 7aaa 103e 957e f03c 8c1a 52bc
000003a0: 56fc 2fbd d458 f73a f79d 093e 8267 533d
000003b0: d67b 043e 10c2 7cbd c345 993d 352a 1d3c
000003c0: 6794 a6bb cc08 ab3b d738 cc3c 332f 1f3d
000003d0: d90e 55bd aa09 ddbc 779f 4f3d a1af 2d3c
000003e0: f44c 93bc ba04 a73c 3a29 413d d8dc 823c
000003f0: 8a7c 96bc 11d7 0cbd a9dd 823c af0f 9c3d
-0.019499827 -0.036125097 0.0017566336 -0.1322955 -0.060831908 -0.005508961 0.098385096 0.06853939
0.020031936 0.048929915 0.12872359 0.046569668 0.07635041 -0.059279505 -0.050294448 0.16247088
0.12261003 0.17670818 0.12054395 0.09400036 0.11776109 -0.014919953 -0.018031152 0.003490106
-0.013928948 -0.04045334 0.009689147 0.16978613 0.073133044 0.16758654 0.18084165 0.1533727
0.12182987 0.09786184 0.16278902 0.09864642 0.024982512 0.12524639 0.123126306 -0.045867402
0.034957502 -0.032383535 0.07377371 0.1133007 0.029360821 -0.030706458 0.053224955 -0.007811096
0.0023287763 -0.01445655 0.08257025 0.16589384 0.08835992 0.12922855 0.024960076 -0.016459603
0.05826462 -0.040749814 0.04634457 0.022474287 -0.029564817 0.032331362 -0.02389382 0.052996892
-0.03405679 0.0382375 0.0006000369 0.0337633 0.0044406396 0.06339811 0.030586146 0.14196412
0.058386397 0.043305382 0.047299825 0.050882135 0.095457636 0.029417744 -0.030957062 -0.05278562
-0.11315573 0.031586982 0.022007193 -0.02529275 -0.0800032 -0.07502569 -0.07476128 0.10469497
0.101234876 0.03485406 0.084272355 0.057211157 0.094884485 -0.05831344 -0.059631016 -0.0654579
0.06920978 0.00069432677 -0.09403532 -0.04874278 -0.121688716 -0.041825872 0.06899775 0.016511045
0.022837996 -0.11618813 -0.06073525 -0.00036034174 0.0710092 0.07003632 0.1343448 0.11532743
0.13312757 0.04382931 0.09540034 0.020230439 0.07720271 0.062162172 -0.07664815 -0.0058560865
-0.013621904 0.1345462 0.12343177 0.008667017 -0.046723533 -0.00736424 0.007062049 0.053988975
0.09860419 -0.0310082 0.016766557 0.055373766 0.052670132 0.056976162 0.13418265 0.043569703
0.07812301 0.096526794 -0.06285521 -0.021475298 -0.024918389 0.12671964 0.10012165 0.1563217
-0.057874717 -0.025831247 -0.039563093 0.067351826 -0.07112567 0.014198763 0.074433744 0.17550261
0.17205226 -0.011833169 0.025944315 0.035474233 0.058654055 0.09382598 0.06699994 0.006841849
0.042888742 -0.070297115 0.1742779 0.105793364 0.13960266 0.0757629 0.069000676 0.12822573
-0.07676639 -0.042201173 -0.04383186 0.009744063 0.046621002 -0.03699247 0.013862711 0.0847972
0.08600983 -0.04052585 0.025509544 -0.0029420338 0.06126206 -0.0663318 -0.009135636 -0.021239629
-0.02996823 0.010214913 -0.020563457 0.083451256 0.0032822592 0.16695888 0.12709808 0.1747617
-0.043738205 0.06449625 0.042301 0.111104086 0.029169165 0.0932476 0.0080383485 0.10129629
0.046055835 -0.06084817 -0.04255845 -0.04428253 0.09259088 0.041505355 0.019711208 0.05956699
-0.014910951 0.049313765 0.09043609 0.15752265 0.13754545 0.088958316 0.08954153 0.056827687
-0.027970973 -0.087159194 -0.13204585 0.008993982 -0.006047753 -0.042445138 -0.012290175 -0.022714112
-0.024152113 -0.050585873 -0.054031517 -0.06146605 0.08204889 0.14127532 0.029357234 -0.012823712
-0.042965256 0.0018871077 0.13439165 0.051612385 0.12937865 -0.06170851 0.07484009 0.0095925825
-0.005083609 0.0052195545 0.024929447 0.038863372 -0.052016113 -0.026982147 0.050689187 0.010600955
-0.01798103 0.020387996 0.047158457 0.015974447 -0.018369932 -0.03438479 0.015974836 0.07620179

conv2.bias f4 [64]
00000000: a054 14bd 32e6 173d 6009 683d 76d1 7f3b
00000010: 6952 573d 71a9 86bd 325c 143d aabd b3bc
00000020: 2456 883d 14e2 0a3d 6833 933d 8aa2 b9bc
00000030: a00c 293c a7fd 813d deee 30bd e4af fcbc
00000040: 098e 79bd eaa8 68bd a9e6 0c3d 1f5a c8bc
00000050: e698 453d 301c 223c 0a8c f13c 0e96 183c
00000060: cc99 8fbd 4feb 46bc 816e 2bbd a309 f1bc
00000070: ba54 5c3d c2b6 6cbd 7d90 6cbd 4738 bbbc
00000080: 85c6 06bd c8d4 ad3c 8c95 3a3d b542 233c
00000090: 7afe ba3b 60ce 1e3d f933 333d 88eb f53b
000000a0: f2a5 3ebd e37d 71bd 49bd 923d 7463 ff3c
000000b0: c765 8a3d a691 d8bc fbec 793c 7d19 18bd
000000c0: 84a1 12bd 9a6b 09bd a822 913d 81ca 4c3d
000000d0: 1d94 2fbd 122b 3cbd b358 bc3c 1b35 4ebc
000000e0: 63bf 083c d61e 883b aace 7dbd 05c9 1c3c
000000f0: 306b 613b 7845 68bd 6fb6 8bbd 38a2 153d
-0.036213517 0.037084766 0.056649566 0.003903476 0.052568827 -0.06575287 0.036220737 -0.021941025
0.06657055 0.03390701 0.07187539 -0.022660512 0.010317951 0.063472085 -0.04319655 -0.03084559
-0.06092647 -0.056801714 0.034399662 -0.024457036 0.04824152 0.009894416 0.029485721 0.00931312
-0.07011756 -0.012141063 -0.04185343 -0.02942354 0.05379174 -0.05779148 -0.057754982 -0.022853984
-0.032904167 0.021219626 0.045552775 0.009964635 0.0057066055 0.038771033 0.043750737 0.007504884
-0.046544977 -0.058957946 0.071650095 0.031175353 0.06757694 -0.026436638 0.015254254 -0.037133683
-0.035798565 -0.033549882 0.07086688 0.04999781 -0.04286586 -0.045939513 0.022991514 -0.0125859035
0.008346411 0.0041540666 -0.06196467 0.009569411 0.0034396164 -0.056706876 -0.06821906 0.036531657

bn2.weight f4 [64]
00000000: 4a67 843f 990d 913f 990d 803f f819 6e3f
00000010: f99b 8b3f bb9f 743f 23df 803f fbbd 833f
00000020: a72a 813f 5f5c 7e3f 50c8 823f 5bf0 753f
00000030: 560d 753f 5e7a 893f f4c5 843f ac54 7a3f
00000040: 8837 823f 24f1 8e3f 0f2a 793f 7275 6f3f
00000050: 4a7a 843f 4c61 6e3f 3ffb 803f ae8d 8b3f
00000060: aeb4 623f b0b4 883f 65e7 8a3f 55f2 883f
00000070: 877e 853f 82d8 883f fefc 883f 3885 7f3f
00000080: f3bf 843f 5f01 7f3f bc8f 773f 9dff 7c3f
00000090: 71d6 853f 18f5 893f d2cb 6f3f 7db3 793f
000000a0: 7eab 703f 7bc3 8a3f 66a8 803f dfa9 7b3f
000000b0: 78eb 893f 6212 843f d9be 793f 0681 8f3f
000000c0: b1a8 833f 1baa 7f3f 4d29 833f 3539 893f
000000d0: 9029 883f e66b 813f cb8a 883f b79a 7e3f
000000e0: 442f 6d3f 79ee 883f c870 813f 7632 893f
000000f0: 415f 8a3f bf5f 823f 58ac 843f 4155 8c3f
1.0344021 1.1332275 1.000415 0.93008375 1.0906974 0.9555623 1.0068096 1.0292352
1.0091141 0.993597 1.021738 0.9606988 0.95723474 1.0740469 1.037291 0.9778545
1.0173197 1.116734 0.973298 0.9353858 1.034982 0.93117213 1.0076674 1.0902612
0.88556945 1.0680141 1.0851866 1.0698954 1.0429238 1.0691073 1.0702207 0.9981265
1.0371078 0.9961147 0.96703696 0.98827535 1.0456067 1.0777922 0.9367038 0.975395
0.94011676 1.0840906 1.0051391 0.9830608 1.0774984 1.031811 0.97556835 1.121125
1.0285856 0.99868935 1.0246979 1.0720583 1.0637684 1.0111053 1.0667356 0.99454826
0.92650247 1.0697776 1.0112543 1.0718524 1.0810319 1.0185469 1.0365095 1.0963517

bn2.bias f4 [64]
00000000: 172d 98bd d894 c13b 41ad 1b3c 71fa c73a
00000010: 50f4 d2bb cece 2cbe 3c63 20be a612 a0bd
00000020: c167 01be f06f ffbd 9bdf c63b 28d8 453d
00000030: ca61 343d 10cf 08bd 1f37 91bd 1337 e43c
00000040: bb13 e0bd ab6e 9ebd ce89 27bc 3cf7 e9bc
00000050: c4f2 4fbd d073 f4bd b554 c3bd ce05 a9ba
00000060: a6f4 0dbe c7a9 aabd 929d 18bc 62bc 38bd
00000070: d217 babd 4411 a5bd b47e 82bd 036d 603d
00000080: 8811 653b b605 3b3d e9c6 653d cf11 14be
00000090: 1bca d4bd 7969 6ebd f0e0 83bd 328f 31be
000000a0: 562c 193d e28c a9bc a15a b9bd 251d 713d
000000b0: dd75 75bd f676 8e3c b8fc 253d a608 19bd
000000c0: 6047 0e3d 18a6 29be ff4f 093e 8ec4 c7bd
000000d0: 0f52 f73c ca59 37be 2866 bbbc c41c d03c
000000e0: 8c57 ac3a a1b7 edbc 0c60 e1bd 0137 babc
000000f0: 3b55 1bbd ae59 623d 1418 80bd 234d 48bd
-0.07430475 0.005907636 0.009501756 0.0015257132 -0.0064378157 -0.16875765 -0.15662855 -0.07816057
-0.12637235 -0.12472522 0.0060691363 0.048301846 0.04403857 -0.033400595 -0.07090592 0.027858293
-0.10941263 -0.07735952 -0.010225726 -0.028560273 -0.05076863 -0.11936152 -0.09537641 -0.0012895407
-0.13862857 -0.08333164 -0.009314911 -0.04510153 -0.090865746 -0.08059934 -0.06371823 0.05479146
0.0034953076 0.045659743 0.0560979 -0.14459918 -0.10390111 -0.058206055 -0.06439388 -0.17339781
0.037395798 -0.020697061 -0.09050489 0.058865685 -0.059926856 0.01739071 0.040524215 -0.037361763
0.034736037 -0.16567266 0.13409422 -0.09754287 0.030190496 -0.17905346 -0.02287586 0.025404342
0.001314865 -0.029018225 -0.110046476 -0.022731306 -0.03792308 0.055261306 -0.062545925 -0.04890169

bn2.running_mean f4 [64]
00000000: a14d 733f db3d ea3d 7f56 8bbd 9467 41bf
00000010: edd8 5d3f 7246 843e 4b79 283f 2389 0b3e
00000020: 6c2d 213f ea02 a1be a376 0c3e 144a 0ebf
00000030: fba6 25bf 2b7a 563f 78d6 773f 2e41 1fbf
00000040: 5eab 90be 59f6 753e e890 1bbf 81b6 bdbe
00000050: 1081 c7be 2fa9 6bbe 33b6 833f 999e 4f3f
00000060: 65f5 7ebe 735b 5c3f f0c5 223f 1689 2b3f
00000070: c8ca 41be a17c 473f 638f 4c3f 94f4 0f3d
00000080: 82c1 8abf af6c 3bbf c432 68bf 5720 043f
00000090: 35ab 513f 739b 643f 69b3 d6be a396 983d
000000a0: d77e 5ebf 190e 993e d519 04be 5e2f 5bbf
000000b0: 2fbb 333f c204 d2be 19e4 00bf d9f3 d0be
000000c0: 363b 01bf 4cd1 eabe 1f59 76bf 2a24 9bbc
000000d0: 1ae9 833c 1fb0 64be 7fea 533e cd98 1cbf
000000e0: fbf5 eebe 7699 513f 7f09 9e3e cdaa 793f
000000f0: 1bfb 603f 67a4 86bf 04e8 4b3f 7c5a 5f3f
0.9504033 0.11437579 -0.06803607 -0.7554867 0.8665913 0.25834996 0.6581008 0.13626532
0.62959933 -0.31447536 0.13717131 -0.55581784 -0.64707917 0.83780164 0.9681163 -0.6220883
-0.28255743 0.24019755 -0.60767984 -0.37053302 -0.38965654 -0.23013757 1.0289978 0.81101376
-0.24898298 0.8607704 0.6358328 0.6700605 -0.18925011 0.77924544 0.7990629 0.035145357
-1.0840304 -0.73212713 -0.9070246 0.51611847 0.81901866 0.89299697 -0.41933754 0.07450607
-0.8691229 0.29893568 -0.12900479 -0.8561915 0.70207494 -0.41019255 -0.5034805 -0.4081104
-0.50480974 -0.45862806 -0.9622974 -0.018938143 0.016102362 -0.2233281 0.20694922 -0.61170655
-0.46672043 0.8187479 0.3086662 0.97526246 0.87883157 -1.0518922 0.796509 0.87247443

bn2.running_var f4 [64]
00000000: a963 6041 5e2d a340 6ad2 4f41 363c 1341
00000010: aba5 2141 974a 3841 3642 2e41 2007 6241
00000020: b403 4541 8bbd 3941 489e 5541 7b86 4041
00000030: dc47 0141 1a17 4441 7bf8 8a40 3dd0 aa41
00000040: f884 8241 17e9 8441 ae21 b141 0933 5141
00000050: e841 cd40 bdc6 ac40 8606 2541 de19 1e41
00000060: 8f78 5541 0902 2b41 481b 6c41 6e18 0a41
00000070: 55df 4741 cb7d 8941 7fb9 3641 bfbd 4641
00000080: b480 0741 7c87 c840 4a1f dd40 1b8f 1941
00000090: f399 6541 caa5 fe40 a468 9040 00f8 2941
000000a0: 3143 d140 1731 3c41 5853 3741 553d e640
000000b0: 604a 5341 9e4b 1541 0a4a 4a41 a683 9341
000000c0: 0033 4741 8cc5 ba41 a8df 0f41 29ed a041
000000d0: 3b4a 6a41 98c5 3d41 f3d1 3341 0afe 7941
000000e0: 9926 0741 5220 8641 04f8 3141 53ad e340
000000f0: 396b 2641 b89d d940 3166 8941 79c3 9441
14.024331 5.099288 12.988871 9.2022 10.102946 11.51821 10.891165 14.1267395
12.313404 11.608775 13.351143 12.032832 8.080044 12.25564 4.342832 21.351679
16.314926 16.613813 22.141445 13.07496 6.414295 5.39926 10.314093 9.881315
13.341933 10.687997 14.75666 8.630964 12.492024 17.186422 11.420287 12.421325
8.468922 6.2665386 6.9100695 9.597438 14.350085 7.957738 4.5127735 10.623047
6.539452 11.761985 11.457848 7.194987 13.205658 9.330961 12.643076 18.439281
12.449951 23.346458 8.992104 20.1158 14.643123 11.860741 11.238757 15.624521
8.446923 16.765781 11.123051 7.1149077 10.401177 6.800503 17.174898 18.595446

conv3.weight f4 [64, 64, 3]
00000000: 3dc4 803c a189 153d dd6d 003e dd34 c2bc
00000010: f8b9 ccbb 7c62 2abd 60f2 7b3d 9e0d 0d3d
00000020: e500 263d 712b b4bc 41a5 dfbc 11aa 38bd
00000030: c4ef 083e e27c af3d 442f eb3d 059f 6c3d
00000040: aef8 af3c 762e 463d 5e8f 043e ab44 0a3e
00000050: 83e8 0d3e a6dc 49bc 20eb a23c 581f 51bd
00000060: 47fb 103d 09b0 05bd 73d4 9fbd 9a6a 59bd
00000070: dd13 69bd 811c 11bd fc1a 383d bc4d 0cbd
00000080: 35e6 e43c 5a52 87bd 9bae 13bd c001 aebd
00000090: 69a7 8ebc 4cfc d9bd 7e8f 6abc dc0b 993c
000000a0: b5a1 fd3c 5ca6 f63d f593 873d 7431 b03d
000000b0: 59b4 9c3d cf6d 2bbd 02e6 883d e270 343c
000000c0: 1ca8 443d 07bd e93c 58dc 863d 5efc e6bc
000000d0: 3ac4 443d a669 d13d 863d 4839 efed 993d
000000e0: 90b2 87bc 5f24 3a3d 8179 ab3c d701 6abc
000000f0: 63d2 603d b02b 81bb de96 a8bc fd95 313c
00000100: 7bed 023c d145 5d3d 0029 b13c 5bfe 923d
00000110: 6050 9a3d 604e 1a3e f773 273d aee8 163d
00000120: 3fa2 193d d0ab 093d 41fd 003e 3d9e 0e3e
00000130: b3fc 173d 747b b63c 1536 603d 874f a53d
00000140: da57 9b3d f8ce 043e 3cb8 253e ab08 053e
00000150: c76a 5d3d 5ac0 003d 48f5 0e3b 2250 0e3e
00000160: 8896 913d c4a5 a13d 0213 ed3d 0ad4 263e
00000170: bb29 d83d c62d 363d e9bc 103d 2057 52bc
00000180: 149a a0bd ac24 c8bc 6502 04be 07ed 1dbd
00000190: 06da 48bd 358e 07bd fc34 babd 9d81 a0bd
000001a0: 2710 11bd 1f6b 663c 921e 31bd 99b2 fb3b
000001b0: 18df 973d 919f d13c f4c7 db3d a906 7c3d
000001c0: 994c 3a3e 5640 0c3e b25d 04be da17 1abe
000001d0: eb12 81bd 91a4 343a 0412 503c b34d c63c
000001e0: 0a60 54bd 4644 21ba 9c53 16bd 7f06 0dbd
000001f0: 156b 1a3d ef45 223d b143 0b3a ad70 de3d
00000200: 5c11 af3d 8a35 543d 47b2 63bd c193 86bd
00000210: 58c6 de3d 6135 e73d d567 c13c 984e 6c3c
00000220: 4178 93bd 4c50 d5bd 943e 9abd fc29 33bd
00000230: cf75 9b3c db85 43bd a187 ec3c 3efd a13d
00000240: 76bc 943d f634 863c 1a5c 19bd e1ee 3b3d
00000250: 1b25 013e 927d 6e3d 229f f8bc 6733 033d
00000260: 8a45 d1bd 82ff f33b 8abe 8dbc 5a96 5ebc
00000270: c66f 1c3d 379d d43c 260e d23d 3da1 683d
00000280: b645 14bd 315e 8b3d 7e1f 963c 2855 5c3d
00000290: 069a 693d 8517 8abd 0dc6 633c d4b9 85bd
000002a0: d21d 4ebd ed16 a13d 629a 3b3d 4778 343c
000002b0: d98d cfb9 6244 e53d 7365 983d d7e8 c4bc
000002c0: b29a 5bbc 8c96 5c3d e030 3c3d b6f6 ad3d
000002d0: 5a5d 843d 19e2 13bb 16f6 d53d 4030 50bd
000002e0: 7f2f 13be 1a34 ccbc 3a74 373d aebd d83d
000002f0: 4f11 0c3e e26a dc3d b157 f53d 3712 a03d
00000300: 516d a6bc 824d dabd 01a1 c6bd c518 613d
00000310: 1e60 95bd d7d0 9b3c b9af 47bd 2145 783d
00000320: 039d 5c3d 2e54 6f3d 2471 4c3d b547 623c
00000330: 463e a73c 60cf d8bd 8e9f 20bd d635 b13d
00000340: 5fb5 85bd 930c 4ebd af7a 7b3c 44b3 1c3d
00000350: 39a7 a53d bafb c6bd 6056 bdbd 2290 aebc
00000360: 7385 163d e7b9 8c3c 4665 203d 40c1 9ebd
00000370: d474 d7bd d496 b3bc b913 0abe d76b 81bd
00000380: 3463 31bc e350 463d c03a 28bd 1160 d1bd
00000390: 1209 32bd b519 9e3d b9fa 5d3a 03fd 49be
000003a0: 714a 22be 27d4 16be 3944 adbd 3196 2ebe
000003b0: 4e67 c5bd ce56 113d 8217 85bd ff92 5bbd
000003c0: 3aef 823d 03ca 36bd 09b5 f8bc 7fd7 ddbd
000003d0: d86a 26bd 8abb 91bd ec9a 1c3d 4eaa 8b3c
000003e0: 2d26 8c3d 6857 853c 0c45 f43b 4cf0 013c
000003f0: b322 a03d 1ca6 ec3d 3a40 e6bb f540 9c3d
0.015718574 0.036508206 0.1254191 -0.023706848 -0.006247755 -0.04159783 0.061510444 0.034436814
0.040528197 -0.02199337 -0.027300479 -0.045084063 0.13372713 0.085687414 0.114836246 0.05776884
0.021480884 0.048384152 0.12945315 0.13502757 0.13858227 -0.012320673 0.019887507 -0.051055282
0.035395887 -0.032638583 -0.07804193 -0.05308018 -0.05690371 -0.035427574 0.04494761 -0.03425382
0.027941803 -0.06607504 -0.03605519 -0.084964275 -0.017413812 -0.10643825 -0.014316438 0.018682413
0.030960897 0.12043449 0.066200174 0.086031824 0.07651586 -0.04185277 0.066844955 0.0110132415
0.048011884 0.028532518 0.06584996 -0.02819651 0.0480387 0.10225229 0.00019096406 0.07516085
-0.016564637 0.045444842 0.020931961 -0.014282665 0.05488814 -0.0039419755 -0.020579752 0.010838983
0.00799119 0.05402166 0.021625996 0.07177421 0.075348616 0.1506896 0.040882077 0.036842994
0.037508246 0.03361112 0.12596609 0.1392755 0.037106227 0.022275664 0.054739077 0.08071809
0.07585116 0.12969577 0.16183561 0.12991588 0.05405691 0.03143344 0.002181368 0.13897756
0.0710879 0.078929454 0.11575891 0.16291824 0.105548345 0.044477247 0.03533641 -0.012838155
-0.07841888 -0.024431549 -0.12891538 -0.038556125 -0.04903605 -0.033094604 -0.09092137 -0.07837222
-0.035415795 0.014063626 -0.043242045 0.0076812026 0.07415599 0.025588783 0.107314974 0.06152979
0.18193282 0.13696417 -0.12926367 -0.15048161 -0.063024364 0.00068909774 0.012699608 0.024206972
-0.051849402 -0.0006151836 -0.03670083 -0.034430023 0.037699778 0.039617475 0.0005312516 0.10861335
0.08548233 0.05180887 -0.05558994 -0.065711506 0.10877675 0.11289478 0.023609081 0.014423035
-0.07200671 -0.10415706 -0.07531467 -0.04374121 0.018977074 -0.047735076 0.028873267 0.0790963
0.072625086 0.016382676 -0.03744135 0.04588211 0.12611811 0.058225222 -0.030349318 0.032031443
-0.10218342 0.0074462304 -0.01730277 -0.013585651 0.038192533 0.025953872 0.10256605 0.056794394
-0.036199294 0.06805075 0.018325564 0.05379215 0.057031654 -0.06742767 0.013902199 -0.065295845
-0.050321408 0.07865701 0.045801528 0.0110150045 -0.000395878 0.111946836 0.07441225 -0.024036808
-0.013403581 0.05385451 0.04594505 0.08494322 0.06463118 -0.0022565185 0.10447328 -0.050827265
-0.14373587 -0.024927188 0.044788577 0.105830535 0.13678478 0.10762574 0.119796164 0.07815974
-0.020315798 -0.10659315 -0.09698678 0.054955263 -0.072937235 0.019020481 -0.048751567 0.0606128
0.053860676 0.05842989 0.049912587 0.013811042 0.020415436 -0.10586429 -0.039214663 0.086528465
-0.065287344 -0.05030496 0.015349074 0.0382569 0.08088536 -0.09715982 -0.0924499 -0.021308962
0.03674836 0.017178489 0.039159082 -0.07751703 -0.1052033 -0.021922506 -0.13484086 -0.06319397
-0.0108268745 0.048416983 -0.041071653 -0.10223401 -0.04346568 0.07719747 0.00084678415 -0.19725423
-0.1584871 -0.14729367 -0.08460278 -0.17049481 -0.096388444 0.035483174 -0.064986244 -0.053606983
0.06393285 -0.044626247 -0.030359762 -0.10832118 -0.040629238 -0.07115848 0.038233683 0.017048981
0.06843219 0.01627703 0.00745452 0.007930826 0.07819118 0.1155512 -0.0070266994 0.07629577

conv3.bias f4 [64]
00000000: c476 813d a970 15bd 0854 e63c a8be 533d
00000010: e168 abbc e82b 2cbd 8d75 30bd c5e3 993c
00000020: 7ca8 703d 1598 293d 6aa3 3fbd 81b1 5dbd
00000030: 6d0c 18bd f3ca a3bc b3d2 a53c b186 21bd
00000040: 8964 aa3c 63ad 62bd 5e30 853d c074 90bd
00000050: 36b9 dabb 9e39 d03c 9376 4d3d e7f4 9dbd
00000060: 77da 79bd 409e 443d 9247 fdbb 2972 d23c
00000070: 6787 313d 4a61 6f3d fb52 6abd be0b b5bc
00000080: dd2a 77bd 5327 13bd 1e46 0e3d 8edc 413d
00000090: 8f2b 4d3c 1c5c 11bd 086e 1dbd 5ded 70bc
000000a0: 3cdb ad3c 04ce 183d a58b 8e3c aaf4 153d
000000b0: e530 ff3c c3af be3c c296 8abb 3951 913c
000000c0: 1490 e0bc 73a8 4f3c 58cc 44bd 9776 6ebd
000000d0: 4d5a 0bbd f1b4 53bd b417 04bc 11dd 903d
000000e0: 5b1a 123d 93df 993b 2a2a 07bd 1860 03bd
000000f0: 22a6 283b e072 2fbc 3250 75bc 1224 8bbd
0.06321481 -0.036484394 0.028116241 0.051695496 -0.020924034 -0.04203406 -0.043080855 0.018785367
0.05875443 0.041404802 -0.046786703 -0.05412436 -0.037121225 -0.019994235 0.02024207 -0.039435092
0.020799892 -0.055341136 0.06503366 -0.07053518 -0.006674911 0.025418099 0.05016191 -0.07712727
-0.06099936 0.04800248 -0.007729479 0.025689201 0.04334202 0.05844239 -0.057208043 -0.022100326
-0.060343612 -0.035926174 0.034734838 0.047329478 0.012522592 -0.035488233 -0.038435012 -0.014705029
0.021222703 0.037305847 0.017400572 0.036610283 0.031151244 0.02327717 -0.0042293975 0.017738925
-0.027412452 0.012674439 -0.04804644 -0.058218565 -0.034021664 -0.05168623 -0.008062292 0.07073415
0.035669666 0.0046958416 -0.032999195 -0.032074064 0.0025733788 -0.010708541 -0.014972733 -0.06793989

bn3.weight f4 [64]
00000000: bcaf 833f 3c72 763f 9d79 8c3f 75ec 783f
00000010: e760 8c3f 0130 903f c954 8c3f 011a 893f
00000020: 7ba4 883f 01b2 983f 7fa8 8b3f b682 8e3f
00000030: c042 653f eef7 8e3f cb74 8d3f 8908 8b3f
00000040: 99a4 893f 9911 843f d242 7c3f e66c 973f
00000050: 3442 913f fbbc 883f 720d 863f fcf4 883f
00000060: ddf3 8a3f ffb6 833f 129b 963f 6f34 8b3f
00000070: c38c 823f 2727 8a3f 6326 863f 1a07 833f
00000080: 13b6 873f 3344 8f3f e84f 863f c64e 8b3f
00000090: 8839 863f 9ae1 823f d80b 723f 0720 8b3f
000000a0: 93d0 803f 01dc 853f df5b 823f b3da 8c3f
000000b0: 5c8a 883f f06a 8a3f 6175 943f e1b4 963f
000000c0: d83f 983f 5521 793f 2250 833f d179 8d3f
000000d0: afb8 833f 7b3b 833f f565 913f c045 853f
000000e0: e4f9 893f f824 8f3f 9644 8b3f 93ae 813f
000000f0: 7522 783f 7b33 8b3f cb02 873f e6f3 8d3f
1.0288005 0.9626806 1.0974613 0.97235805 1.0967072 1.126465 1.0963374 1.0711061
1.0675195 1.1929322 1.0910796 1.113364 0.8955498 1.1169412 1.1051267 1.086198
1.0753356 1.031787 0.9853946 1.1830108 1.1348329 1.0682672 1.0472853 1.0699763
1.0855671 1.0290221 1.1766074 1.0875376 1.0199207 1.0793198 1.0480465 1.0236542
1.060244 1.1192688 1.0493135 1.0883415 1.0486307 1.0225098 0.9454932 1.0869149
1.0063652 1.0457765 1.0184287 1.1004242 1.0667224 1.0813885 1.1598321 1.177395
1.1894484 0.97316486 1.025883 1.10528 1.0290736 1.0252527 1.135924 1.0411911
1.0779386 1.1183157 1.0880306 1.0131401 0.9692758 1.0875086 1.0547727 1.1090057

bn3.bias f4 [64]
00000000: f633 4bbd 2bce cebc a4f4 aa3d 24ff 42bc
00000010: d85d 8ebd f856 7dbd 3ee1 61bd db0f 26bd
00000020: dd4a 29bd 6a70 65bd eacc 5cbd 8daf aa3d
00000030: b679 3ebd ffd4 893d 7da2 6ebd c20f 74bd
00000040: 4e19 a8bd 8d65 63bd 3a56 9ebd 2119 1fbd
00000050: ee35 bb3d 0af3 8bbd 80b6 6abd 631d 8fbd
00000060: aa35 86bd a868 93bd a440 83bd 4b7a 49bd
00000070: 130c 58bd 5193 8dbd 58bb a0bd a0bd 76bd
00000080: e481 7dbd b8ba a53d 8768 22bd bf5e 11bd
00000090: 76c3 41bd 09a6 7abd 2dd8 b4bd ba05 6dbd
000000a0: fc09 6cbd 490f 68bd 64d0 4bbd 8e67 55bd
000000b0: 7642 d8bc 31be 56bd 2895 42bd eb2f 0bbd
000000c0: 2906 a63a 29ab 8dbd bdea 77bd 9619 79bd
000000d0: 0d22 f1bc 6b47 7b3d a682 22bd 61d2 30bc
000000e0: 6582 a2bd f247 14bd a0ed abbc 0223 42bd
000000f0: c11b 0dbd 21f3 993d c911 93bd d578 a2bd
-0.0496101 -0.025244793 0.08347443 -0.011901651 -0.06951493 -0.061850518 -0.05514645 -0.040542465
-0.04133116 -0.05601541 -0.05390636 0.08334265 -0.04650279 0.06730079 -0.05826043 -0.05958534
-0.082079515 -0.05551677 -0.0773129 -0.038842324 0.09141146 -0.068334654 -0.05730295 -0.06988027
-0.06553204 -0.07197696 -0.064088136 -0.049188893 -0.05274589 -0.06912864 -0.07848233 -0.060239434
-0.06189145 0.080922544 -0.039650466 -0.035490748 -0.047305547 -0.0611935 -0.08830295 -0.05786679
-0.05762671 -0.056655202 -0.049759284 -0.05210071 -0.026398879 -0.052427474 -0.047505528 -0.033981245
0.0012666631 -0.06917412 -0.0605266 -0.060815416 -0.029435182 0.061347406 -0.039675377 -0.010792346
-0.07935027 -0.036201425 -0.020987332 -0.047396667 -0.034450296 0.07517076 -0.071811266 -0.07933203

bn3.running_mean f4 [64]
00000000: 1719 2d3e 627b 86be dabf 85be 7d72 d9bc
00000010: 2edd 263f fb71 fe3d 0930 ec3e 91ee 523e
00000020: a72c c83e f1a2 163f 7f0d 313e daa1 30bf
00000030: b222 e53e 4afc 02bf e85f 9b3d 1131 ae3e
00000040: faed 333e f3db 043f 6e8c 743f 5c9c 833e
00000050: e924 02bf 0870 1f3f 68fb 363f a1c4 133d
00000060: 41fc 093f d98a 093f 989b 853f 24a6 4f3f
00000070: 8279 363f 8c19 c13e 1fe2 db3e 9849 253e
00000080: 93a8 433f f7f5 1abf dc14 573f dcd3 383f
00000090: 96a2 10bc 2094 f13e 724d a23e d3b5 ab3c
000000a0: 54b7 743e d6ba 273f e45f f93d 36e2 543f
000000b0: d479 533f df93 7c3e 24b5 853f 3d92 333f
000000c0: c6df 283d 37fa 1b3f 8690 28bd 6c56 3d3f
000000d0: 595e 8bbe 34a1 953d 5a82 0e3f ba91 903e
000000e0: 7c72 e53e 712f 5e3f 3c47 dd3d 5316 62be
000000f0: c5f8 f53e f54f b1be 5bca 0e3c eaf9 d23e
0.16904102 -0.2626601 -0.26122934 -0.02654385 0.65181243 0.12424084 0.46130398 0.20598818
0.39096567 0.5884238 0.17290305 -0.68996966 0.44753033 -0.5116621 0.07586652 0.3402181
0.1757125 0.51898116 0.9552678 0.2570523 -0.5083757 0.6228032 0.71477365 0.03607619
0.53900534 0.5372749 1.0438108 0.81112885 0.71279156 0.37714803 0.42945954 0.16141355
0.764291 -0.6053156 0.84016204 0.7219827 -0.008827826 0.47183323 0.3169971 0.020960724
0.23898059 0.65519464 0.12176493 0.8315767 0.8260777 0.24665783 1.0445905 0.70145017
0.041229032 0.6092867 -0.041153453 0.73959994 -0.2722042 0.07306138 0.5566765 0.2823618
0.44813907 0.8679114 0.108046025 -0.22078829 0.4804136 -0.34631315 0.0087152375 0.41206294

bn3.running_var f4 [64]
00000000: b311 8541 738f e241 9925 9e41 618a 5841
00000010: 05fd 9a41 a6f2 6041 89ac e541 ec7e 8741
00000020: 3bac 1c41 78c0 9141 3e32 8641 5360 f241
00000030: 2e8d f940 49b1 bb41 31cc 4b41 c235 a540
00000040: b968 8f41 7265 9740 beb0 1b41 1629 a141
00000050: d8bd bb41 2a96 c741 dcde 9f41 fbd4 7e41
00000060: 4dfc 0241 1aa1 5b41 9415 3e41 75fe b941
00000070: 9111 2e41 7c5b ca41 7619 8c40 10c9 a241
00000080: a419 d141 a3f2 ba41 ae95 7741 6c5e 2341
00000090: 5bcc ae41 2c5d f440 fda6 c640 4f30 a041
000000a0: 97e6 5e41 d066 6141 7744 6841 b0bd 1041
000000b0: 02fc 9e41 74f3 9f41 622d 5241 68b0 cb41
000000c0: b038 e241 8b73 f840 5c8a 8b41 59f6 4641
000000d0: 6fc1 1741 62e1 0442 6f73 9841 3c0c bf41
000000e0: 381c db41 46a4 8441 c354 e141 c707 1e41
000000f0: 11b1 2b41 c132 9041 6c50 2d41 66cb 5441
16.633642 28.320044 19.768358 13.533784 19.373545 14.05924 28.709246 16.936974
9.792048 18.218979 16.774532 30.297033 7.798484 23.461565 12.737351 5.162812
17.926134 4.7311335 9.73065 20.145061 23.467697 24.948322 19.983818 15.926997
8.186597 13.726831 11.880268 23.249247 10.879289 25.29467 4.378108 20.348175
26.13752 23.368475 15.474043 10.210552 21.849783 7.6363735 6.2078843 20.023588
13.931296 14.087601 14.516715 9.04631 19.87305 19.993874 13.13608 25.461136
28.27768 7.7641044 17.442558 12.435143 9.484725 33.2201 19.056364 23.880974
27.388779 16.580212 28.166388 9.876899 10.730729 18.024782 10.832134 13.299658

gru.weight_ih_l0 f4 [600, 64]
00000000: cdeb ac3d 86fa 6cbd 10bd afbd 51b3 433d
00000010: 4550 bcbc 3dfa 113d 8c04 6ebb dbe5 e0bc
00000020: 06d3 92bd 79ec 603d f7fa 9dbc 7ff6 42bd
00000030: 302e 1cbb 4631 16bd ef9c 86bc 56e2 f2bc
00000040: 1253 533d 7b64 01bd 4c68 f3bd 79a3 dd3c
00000050: 415a 30bd 0ef4 c8bd 509d b4bd 9a2d aa3d
00000060: 05a7 bb3c ab0d 5fbd 09ef 7b3d 6beb fe3c
00000070: ef01 183b 6554 b1bc 6249 90bd e3db 823d
00000080: e10e 3f3d df11 d9bd 6ed0 7f3b 1e2f c3bb
00000090: 09de 823d 00c4 c23c 3efd f4bd ec09 c63c
000000a0: b501 963d d702 d6bd bf45 54bc cbd9 583c
000000b0: 3e97 7abd f8a1 ec3c 2419 2cbd 5152 fbbc
000000c0: 46c5 9f3d 0a75 f1bc d8c3 c4bc 3ac5 d93d
000000d0: 84d8 14bd 407a 49bd 3f90 293d 7350 b3bc
000000e0: 559d 633c fc77 263d 0e8c 753d 8d98 a4bc
000000f0: 21ca 3ebd 2bbd 06be 33b0 b9bd 3417 93bd
00000100: e561 fbbd 475b 09be 653a 883c c791 3cbd
00000110: 395c 20bd f808 29be aad4 1bbd cc16 5abd
00000120: 47f2 86bd 2203 133e 2980 1a3d b304 69bc
00000130: 2b53 5cbd 5902 d43c b534 3b3d 79f3 e33c
00000140: dfad f4ba 2744 00bd c4de dcbd 0213 2ebd
00000150: 1521 f03c fa5d 8abb 10ba cd3c f54d dfbd
00000160: de50 e53c 0d67 f3bc bdba ddbd 2800 35bd
00000170: e057 cdbd a974 2dbd 6921 013d 47c1 2d3c
00000180: 6dcf 6fbb 0431 71ba 687e 6abd 99a9 05be
00000190: e5c6 dcbd 8a62 2dbd 5a37 dd3c 1183 9abd
000001a0: 6542 34bd 623e c03d 2f28 aabd 219d 0fbd
000001b0: ed70 133c 5dd8 fabc f9f5 6d3d 152b c4bc
000001c0: 27d2 9dbc adea 88bc 6da9 42bd e9e8 58bc
000001d0: 5c6c 0e3c 6fa9 1fbe b832 dfbc 5d19 23bc
000001e0: f284 0bbd 6d73 12bd 6cd9 b6bd a640 0dbe
000001f0: 498a c2bd fc2e 023d bb65 aabd 979d 03bd
00000200: 4798 eabd 0d6d 403c cfd7 363d 6ea0 173c
00000210: 21f2 833d 6578 30be 15d7 d93c f0ef 9a3c
00000220: 2e70 993c e1f0 74bd c69b a03d d76e af3d
00000230: 52fd 04bd a5bf 603d c176 eabd f958 b0bc
00000240: c73d 11be ca8b a4ba 8ad9 39be ecd7 86bc
00000250: bf5f ca3d dfd1 34bd f218 89bd 60c0 383c
00000260: a731 9cbd 8d9d 0abe 74ce 4ebc c89f 47bd
00000270: 32d4 3cbd f1ff de3c 6275 57bd 6b55 b6bd
00000280: a971 1cbc 5528 793d d3fb 783c 6688 7c3d
00000290: f671 78bd f6d2 963c 40a9 4abd 98e2 1ebc
000002a0: 22d4 3abd 2098 103d aa34 4ebc 8888 e8bd
000002b0: 6961 8abd 5336 c9bd 417c e2bc 7575 bfbc
000002c0: 320c 3abc 0b5f a43d 277c f1bd 1287 193b
000002d0: 017d 1cbe c1c4 c9bc e300 b63d 75db 973d
000002e0: 69e7 07be d286 25be 734a 08be b7bd abbd
000002f0: f290 9b3d 7b1d 88bd 098b 35bd dc99 29be
00000300: d280 6bbc 8c0c b8bd 8c0d 01be 0c97 9ebc
00000310: 789c 54bc 2f17 963d 4db9 bfbd b4a0 5c3c
00000320: 6be9 17bd 5854 9dbd e42f 653d d74b c8bc
00000330: 17fc f7bd d0a3 b7bd c92e 573d c94a f9bd
00000340: d9ee 993c b4cc 13be 7f35 56be add5 c03c
00000350: b78e ae3c 1efa dd3b 57ea 2a3d d8ed febc
00000360: e555 b43c 142a e4bc 8b0c 83bc aa35 31bd
00000370: a097 a53d c9e3 9a3d 4a8d 50bd 9b5c 313c
00000380: 1655 033d 82ce d0bd b2dd 333d 6dcf 383c
00000390: 1fa0 1abd 5996 b93d 70ec c0bc 5ded bc3c
000003a0: 7594 153d 32f3 97bd cbb3 c63d 1265 34bb
000003b0: c960 14be c6be e1bc af41 44bd 7d35 3fbd
000003c0: 53c3 853c e08b 4bbc 1f61 a83d 133e 89bd
000003d0: 020c 823c 80f7 25be ad35 88bd 7af7 93bd
000003e0: ffbb 933d 80ec 07be 8b55 8c3d 7570 3c3d
000003f0: 83b3 ebbb 67cd 73bd 03d4 fd3c 6fd6 3d3c
0.08443413 -0.057856105 -0.08580983 0.04777843 -0.022987494 0.035639036 -0.0036318628 -0.027453354
-0.07169156 0.054913018 -0.019284708 -0.04759836 -0.002383124 -0.036668085 -0.016432254 -0.029648941
0.051592894 -0.031589966 -0.118851274 0.027055489 -0.043054823 -0.09812175 -0.088190675 0.08309479
0.02290679 -0.054456394 0.06150726 0.031118115 0.0023194512 -0.021646688 -0.07045247 0.06389596
0.04664505 -0.10599112 0.0039034146 -0.0059565445 0.06390006 0.0237751 -0.119623646 0.024174653
0.07324544 -0.104497604 -0.012956082 0.01323552 -0.061179392 0.028885826 -0.042016163 -0.0306789
0.07801299 -0.029474754 -0.024019167 0.10633321 -0.036339298 -0.049188852 0.04139733 -0.021888947
0.013892491 0.04064177 0.05994802 -0.020092273 -0.046579484 -0.131581 -0.090668105 -0.0718216
-0.12274531 -0.13413726 0.016629407 -0.04603746 -0.03915045 -0.16507328 -0.03804461 -0.053244397
-0.065891795 0.14356664 0.03771988 -0.014222312 -0.053790253 0.025880026 0.045704562 0.027826058
-0.001866754 -0.031314995 -0.10784677 -0.042498596 0.02931265 -0.0042226287 0.025113136 -0.10903541
0.027992662 -0.029712224 -0.10826633 -0.044189602 -0.100265265 -0.042347584 0.031526003 0.010605163
-0.0036592141 -0.00092007243 -0.057249457 -0.13052978 -0.107801236 -0.042330302 0.027003933 -0.0754453
-0.04400863 0.093868986 -0.08308446 -0.03506196 0.008999092 -0.030620748 0.058095906 -0.023946324
-0.019265248 -0.016713465 -0.04752486 -0.013239124 0.008692827 -0.15591978 -0.027245864 -0.009954778
-0.034062333 -0.03575461 -0.08928189 -0.13794193 -0.09499032 0.03178309 -0.08320185 -0.03213271
-0.11454826 0.01174475 0.044639405 0.009254558 0.06442667 -0.17233427 0.026591817 0.01891324
0.01873025 -0.059800033 0.078422114 0.08566063 -0.032468148 0.054870266 -0.11448432 -0.0215268
-0.14183722 -0.0012553867 -0.18149391 -0.016460381 0.09881543 -0.04414546 -0.06694211 0.0112763345
-0.07626658 -0.13536663 -0.012622464 -0.048736364 -0.046100803 0.027221652 -0.05260218 -0.08903011
-0.009548583 0.06082948 0.015196758 0.061653517 -0.060655557 0.01841114 -0.049477816 -0.009697579
-0.045612462 0.035301328 -0.012585798 -0.11354166 -0.06756861 -0.09824815 -0.02764714 -0.023371438
-0.011355447 0.080259405 -0.11791258 0.0023426455 -0.1528206 -0.024629952 0.08886888 0.07414905
-0.1327187 -0.16164711 -0.1330965 -0.083857946 0.075960055 -0.06646248 -0.044322047 -0.16562599
-0.014373975 -0.08986768 -0.12602824 -0.019359134 -0.012976758 0.07328641 -0.09361515 0.013466049
-0.03708784 -0.07682103 0.055953875 -0.024450226 -0.12108629 -0.08966792 0.052534852 -0.12172467
0.01879065 -0.14433557 -0.20918845 0.023539389 0.021308286 0.006774201 0.04172739 -0.031119272
0.022013614 -0.027852096 -0.015997192 -0.04326407 0.08085561 0.07562978 -0.050915994 0.0108253015
0.032063566 -0.10195638 0.043912597 0.011279923 -0.03775036 0.0906188 -0.023550242 0.023062402
0.036518533 -0.07419433 0.097022615 -0.0027526063 -0.14490046 -0.027556788 -0.047914203 -0.04668187
0.01632849 -0.0124234855 0.082216494 -0.06701293 0.015874866 -0.16207695 -0.06650863 -0.07224937
0.07213592 -0.13273811 0.068522535 0.046005685 -0.0071930303 -0.05952206 0.030984884 0.0115867695
