mtc_exp/S1_model_all_tasks.pth (torch, 934418 bytes, 26 tensors)

conv1.weight f4 [64, 20, 3]
0	0x3f06a3e7	0.52593845
1	0x3f078908	0.5294347
2	0x3ea15c90	0.31515932
3	0x3eafb0ac	0.34314477
4	0x3e5d61f8	0.21619403
5	0x3e568442	0.2094889
6	0xbe7314f7	-0.23738466
7	0xbd976935	-0.073931135
8	0xbce9c185	-0.02853466
9	0x3a9acb84	0.001180992
10	0x3e6bca37	0.23026358
11	0x3daa0673	0.08302011
12	0x3e2216b3	0.15828972
13	0x3d53dc9d	0.051724065
14	0x3d83f3a1	0.06442953
15	0x3e686518	0.22694814
16	0x3ef806fc	0.4844283
17	0x3e969425	0.294099
18	0x3e037359	0.1283697
19	0x3e584e31	0.21123578
20	0x3cec4bd7	0.028844757
21	0x39171ea6	0.000144119
22	0x3c92b58e	0.017908838
23	0x3e44ff99	0.19238128
24	0xbe6e23c3	-0.2325583
25	0xbe97afa1	-0.29626182
26	0xbeadc32a	-0.3393796
27	0xbd243f05	-0.040099163
28	0x3bf529c8	0.0074817874
29	0xbdefe84e	-0.117142305
30	0x3e8ac512	0.27103478
31	0xb79402ee	-1.764434e-05
32	0x3e16b4da	0.14717427
33	0x3d28ff33	0.041259002
34	0xbbd9f61c	-0.006651653
35	0x3e0f79d1	0.14011313
36	0x3e5dd118	0.21661794
37	0x3e9088db	0.28229412
38	0x3dfcce5c	0.123440474
39	0x3d41a774	0.047278836
40	0x3e5cfd96	0.2158111
41	0x3e53553b	0.20637982
42	0x3e22c296	0.15894541
43	0x3e7b752a	0.24556413
44	0x3e3c4327	0.18384992
45	0xbdce4806	-0.10072331
46	0x3e0ce8dc	0.13760704
47	0x3dfc0a6a	0.12306674
48	0x3eb7f899	0.35931852
49	0x3e05d039	0.13067712
50	0xbdb62d7e	-0.08895396
51	0x3e0314bb	0.12800877
52	0x3d225a36	0.039636813
53	0x3e71d4f1	0.23616387
54	0x3eabf2d8	0.33583713
55	0x3ee0a805	0.4387819
56	0x3e958982	0.29206473
57	0x3ea177c1	0.31536677
58	0x3edc703f	0.43054387
59	0x3e23d014	0.15997344
60	0xbe212777	-0.15737711
61	0xbe78d14f	-0.24298595
62	0xbd17c6c5	-0.037054796
63	0xbeac458e	-0.33646816
64	0xbe860631	-0.261766
65	0xbe714e38	-0.23564994
66	0x3d33fe7e	0.043943875
67	0xbe6085fc	-0.21926111
68	0xbe459e3a	-0.1929864
69	0xbeb088f7	-0.34479496
70	0xbe305724	-0.17220742
71	0xbe1f01dd	-0.15528055
72	0x3dd93348	0.10605484
73	0xbe3f3218	-0.18671453
74	0xbe4744c8	-0.19459832
75	0xbe5f3b85	-0.21800049
76	0xbe761035	-0.2402962
77	0xbd6c7832	-0.057731815
78	0xbe2ff319	-0.17182578
79	0xbcd9e7e8	-0.02659984
80	0xbdfffa1f	-0.12498879
81	0xbde0ae3e	-0.10970734
82	0xbcd32996	-0.025776666
83	0xbe05a7e8	-0.13052332
84	0xbd9fb2c1	-0.077977665
85	0xbe887863	-0.26654348
86	0xbe2c0533	-0.16798858
87	0xbe626a8a	-0.22110954
88	0xbe2fab44	-0.17155176
89	0x3d1a8aa1	0.037729863
90	0xbe56a6ea	-0.2096211
91	0xbe8723ab	-0.263944
92	0xbd1f15bf	-0.038839098
93	0xbdf50a10	-0.1196481
94	0xbe5ed5b2	-0.21761206
95	0xbe15c661	-0.14626457
96	0xbdaac95f	-0.0833919
97	0xbe5c8ce8	-0.21538126
98	0xbe16c4b7	-0.14723478
99	0xbe5431fb	-0.20722191
100	0xbe34c775	-0.17654212
101	0xbd72bf7a	-0.059264638
102	0xbe521a54	-0.20517856
103	0xbe5f5e13	-0.2181323
104	0xbdcc4ef8	-0.099759996
105	0xbe7aeb35	-0.24503787
106	0xbe74e403	-0.23915105
107	0xbd34260d	-0.0439816
108	0xbe962715	-0.29326692
109	0xbe9a6649	-0.30156162
110	0xbdc871b6	-0.09787314
111	0xbea675e6	-0.32511824
112	0xbecba738	-0.39776015
113	0xbf1ca9dc	-0.61196685
114	0xbe836625	-0.25663868
115	0xbe636069	-0.22204746
116	0xbdba6a73	-0.09102335
117	0xbf071886	-0.52771795
118	0xbef0ab33	-0.47005615
119	0xbeb93738	-0.3617494
120	0x3e9ec64a	0.31010658
121	0x3e8cf4de	0.2753057
122	0x3ec72ebc	0.38902843
123	0xbd85ddcf	-0.06536447
124	0xbdfd307c	-0.12362763
125	0xbd84cb53	-0.064840935
126	0x3e2c8177	0.16846262
127	0x3df3b8c3	0.11900475
128	0x3ec791ca	0.38978416
129	0x3e317ffc	0.17333978
130	0x3e8dd67b	0.27702698
131	0x3e8412a6	0.25795478
132	0x3d61b522	0.055104382
133	0x3e8ffe59	0.2812374
134	0x3d6c9957	0.057763424
135	0xbea6d66c	-0.32585466
136	0xbef3851c	-0.47562492
137	0xbebb8efb	-0.36632523
138	0x3e364367	0.1779915
139	0x3dc7681d	0.09736655
140	0x3db6d812	0.08927931
141	0xbc8dbe90	-0.017302781
142	0x3dee4c2e	0.11635624
143	0xbe25c5b7	-0.16188703
144	0x3e1cc139	0.15308084
145	0x3e744d4e	0.23857614
146	0x3e7293d6	0.23689207
147	0x3ed6d264	0.4195739
148	0x3f0b6a07	0.5445866
149	0x3e8a2fb4	0.2698952
150	0xbe773198	-0.24140012
151	0xbe8a43ea	-0.2700494
152	0xbe5a1b11	-0.21299388
153	0xbe26548b	-0.16243188
154	0x3e48c3b2	0.19605902
155	0x3d4d7526	0.05016055
156	0x3d94db6f	0.07268416
157	0x3db543e1	0.088508375
158	0x3d6f1b28	0.058375508
159	0xbd9ba38d	-0.07599554
160	0x3e69a5e4	0.22817189
161	0x3e585020	0.21124315
162	0x3e91ed6f	0.2850146
163	0x3e4ba3ec	0.1988675
164	0x3ea42654	0.32060492
165	0xbd946ecf	-0.072476976
166	0x3e10f806	0.14157113
167	0x3ee6c591	0.45072606
168	0xbd4b8fa1	-0.049697522
169	0xbe0ceef1	-0.13763024
170	0xbdeee256	-0.11664264
171	0xbd2ea741	-0.042639975
172	0x3cd9d2a9	0.026589708
173	0xbdce4226	-0.100712106
174	0xbe3b984b	-0.18319814
175	0xbdf8cce6	-0.12148456
176	0xbdfb582f	-0.12272679
177	0xbd00eccb	-0.031475823
178	0xbd66d311	-0.056353632
179	0xbe7744c4	-0.24147326
180	0xbd7a97a5	-0.061179776
181	0xbd76a2ab	-0.060213726
182	0xbdb12db8	-0.08651298
183	0xbed29641	-0.4113026
184	0xbeb222ea	-0.34792262
185	0xbe9e0eff	-0.30870816
186	0x3d9a0a28	0.075214684
187	0x3c8e1cd1	0.017347725
188	0x3d21449a	0.039372064
189	0xbe2e2f43	-0.17010216
190	0xbe8051e9	-0.25062492
191	0xbe6e40f6	-0.23266968
192	0x3e5bb463	0.21455531
193	0x3eb4f7db	0.3534535
194	0x3e0d05ae	0.13771698
195	0xbe11aaf5	-0.14225371
196	0xbe637357	-0.22211967
197	0xbdedbc74	-0.1160821
198	0x3ced0728	0.028934076
199	0x3d9f464a	0.077770784
200	0xbd8f2d35	-0.069910444
201	0x3da0eff1	0.07858265
202	0x3e3a92a6	0.18220004
203	0x3dcd5cd8	0.10027474
204	0xbd263746	-0.040580057
205	0xbe0803e1	-0.1328273
206	0xbe1c7fa6	-0.15283069
207	0xbdd0d75b	-0.10197326
208	0xbcf8f36c	-0.03038951
209	0x3d9af554	0.07566324
210	0x3d08bcc4	0.033383146
211	0x3d398e9e	0.045302026
212	0x3c18e1c1	0.009331168
213	0x3daf1db3	0.085505866
214	0x3dac3408	0.08408362
215	0x3e070b49	0.13187899
216	0x3e64f8c9	0.22360529
217	0x3dfa2e92	0.12215914
218	0x3db51243	0.08841374
219	0xbe23e027	-0.16003476
220	0xbe2bc4ed	-0.1677434
221	0xbcb63c53	-0.022245562
222	0xbd62e5f7	-0.055395093
223	0xbdcaf421	-0.09909845
224	0xbe0b34fb	-0.13594429
225	0x3c6c423e	0.01442009
226	0x3d4d0dfd	0.05006217
227	0x3b211901	0.0024581554
228	0xbe81d5dc	-0.25358474
229	0xbeb062f1	-0.34450486
230	0xbea2f2f3	-0.3182598
231	0x3eba5b15	0.36397615
232	0x3f0900c3	0.5351679
233	0x3f2b023e	0.66800296
234	0xbd8ffe13	-0.07030883
235	0xbe00d4cc	-0.12581176
236	0xbe646fcc	-0.22308272
237	0xbf19b952	-0.600484
238	0xbf2baf62	-0.6706449
239	0xbf22fb6a	-0.6366488
240	0xbe0505ac	-0.12990445
241	0xbe91bf90	-0.28466463
242	0xbe8bbd92	-0.27293068
243	0xbe33c26e	-0.17554638
244	0xbe22e0a5	-0.15906008
245	0xbe6b3887	-0.22970782
246	0xbedf3e1d	-0.43602076
247	0xbec69077	-0.38782093
248	0xbeefbfe2	-0.46826082
249	0xbd9b15ee	-0.07572542
250	0xbe69e629	-0.22841705
251	0xbe8d922c	-0.27650583
252	0xbdf05157	-0.11734264
253	0xbe6a9e6e	-0.22911999
254	0xbe30e878	-0.1727618
255	0xbdac4f4d	-0.08413563

conv1.bias f4 [64]
0	0xbe33f4f1	-0.17573906
1	0x3f38964b	0.7210433
2	0xbdbfac84	-0.093590766
3	0x3d9da6e3	0.07697847
4	0xbdf78dea	-0.12087615
5	0x3e2e2ca3	0.17009215
6	0xbdfb84e7	-0.122812085
7	0x3e7b3ca4	0.24534851
8	0xbd903ca8	-0.07042819
9	0xbe4c6044	-0.19958597
10	0x3db919fc	0.09038159
11	0x3e4d3609	0.20040144
12	0xbe2e0904	-0.16995627
13	0x3e9afe0d	0.3027195
14	0x3e22a1d9	0.15882052
15	0xbe6eaf4c	-0.23309058
16	0xbe945af6	-0.28975648
17	0xbe568454	-0.20948917
18	0xbbdb5290	-0.006693192
19	0xbe848f26	-0.25890464
20	0x3e7ea171	0.24866273
21	0x3e99b535	0.30021062
22	0x3a744347	0.00093178864
23	0x3dd5b41a	0.10434742
24	0x3d2bd002	0.04194642
25	0x3b123f28	0.0022315476
26	0xbe939c53	-0.28830203
27	0xbd81e29c	-0.063420504
28	0x3e5d0738	0.21584785
29	0xbd691c6a	-0.056911863
30	0x3de50791	0.11183084
31	0x3de9b5e9	0.1141165
32	0x3d305ef8	0.04305932
33	0xbdf7d8bf	-0.12101888
34	0xbd58941b	-0.05287562
35	0xbcfcc4e3	-0.030855602
36	0x3da71410	0.081581235
37	0x3d6fd6cd	0.05855446
38	0x3f1dccfc	0.61640906
39	0xbe0a43fd	-0.13502498
40	0x3d2e90ad	0.042618442
41	0xbed5778b	-0.41692767
42	0xbe7d8339	-0.24757089
43	0x3e7f94df	0.24959134
44	0x3e02b9b1	0.12766148
45	0xbe33c2e9	-0.17554821
46	0x3e8bed33	0.27329406
47	0x3e826d85	0.25474182
48	0xbca2505f	-0.019813715
49	0xbd1b00c1	-0.037842516
50	0xbc9d9288	-0.01923491
51	0xbdbf65d8	-0.09345597
52	0x3e3ed137	0.18634497
53	0x3eb82105	0.35962692
54	0x3dd7450e	0.10511218
55	0xba951306	-0.0011373467
56	0xbf221195	-0.6330808
57	0xbdc60a7a	-0.09669967
58	0xbe992acf	-0.29915473
59	0x3cdfaa96	0.027303021
60	0xbc97804c	-0.018493794
61	0xbe4f626c	-0.20252389
62	0x3e4a7ce1	0.197742
63	0x3e16f669	0.14742436

bn1.weight f4 [64]
0	0x3f5178ed	0.81825143
1	0x3fca5338	1.5806646
2	0x3f60a162	0.8774625
3	0x3f911b44	1.1336446
4	0x3f88a9e1	1.0676843
5	0x3f71354d	0.94221956
6	0x3fc1c72c	1.5138907
7	0x3fa880d2	1.3164313
8	0x3f59e5c0	0.85116196
9	0x3f8d4b7b	1.103866
10	0x3f724068	0.94629526
11	0x3f8acc05	1.0843512
12	0x3f2f394c	0.68446803
13	0x3fa75427	1.3072556
14	0x3fbdbf54	1.4824014
15	0x3f89eca2	1.077534
16	0x3f6df932	0.92958367
17	0x3f99b742	1.2009051
18	0x3f4f4b35	0.8097413
19	0x3f92ab85	1.1458594
20	0x3f63ffd9	0.8906227
21	0x3f92a425	1.1456343
22	0x3faae9cc	1.3352599
23	0x3f8ebe30	1.1151791
24	0x3fae4580	1.361496
25	0x3f583190	0.84450626
26	0x3f8a3284	1.0796666
27	0x3f882f21	1.0639383
28	0x3f8ccf79	1.1000816
29	0x3f882d17	1.063876
30	0x3fc2a1d5	1.5205637
31	0x3f8ef2db	1.1167864
32	0x3f808201	1.0039674
33	0x3f82ce91	1.0219289
34	0x3f69c18c	0.91310954
35	0x3fa6d4c3	1.303368
36	0x3f77e39e	0.9683169
37	0x3f2de6d1	0.6793032
38	0x3f9a5fd4	1.2060494
39	0x3f74ee54	0.9567616
40	0x3f8de8b0	1.1086636
41	0x3f8af19a	1.0854981
42	0x40257afb	2.5856311
43	0x3f731f4c	0.9496963
44	0x3f8f7601	1.1207887
45	0x3f94de0c	1.1630263
46	0x3f998f4e	1.1996858
47	0x3f9f0bfb	1.2425531
48	0x3f91bab2	1.13851
49	0x3f6a65d9	0.9156166
50	0x3f808da0	1.004322
51	0x3f937a78	1.152175
52	0x3f986b0e	1.190767
53	0x3f6922ba	0.91068614
54	0x3f898da4	1.074635
55	0x3feacb13	1.8343223
56	0x3f897c59	1.0741073
57	0x3f823c7f	1.0174712
58	0x3f88ef61	1.0698053
59	0x3f53b141	0.82692343
60	0x3f9c2b77	1.2200764
61	0x3f60fbc5	0.8788417
62	0x3f7aa96b	0.9791476
63	0x3fa3dd5b	1.2801927

bn1.bias f4 [64]
0	0x3d87b909	0.066270895
1	0x3e0ef5c2	0.13960937
2	0xbd73dfc3	-0.059539568
3	0x3d9ab380	0.07553768
4	0xbe7a92d6	-0.24470076
5	0xbd5d5480	-0.054035664
6	0x3e078fbd	0.13238426
7	0x3e703abe	0.23459908
8	0x3d5e0f96	0.054214083
9	0x3dcc65be	0.09980343
10	0xbe76a7ef	-0.24087499
11	0x3cb5a29d	0.022172267
12	0xbcf8fe76	-0.030394774
13	0x3dca290c	0.0987111
14	0x3d859d1e	0.06524108
15	0xbd0147fe	-0.031562798
16	0xbe43e521	-0.19130374
17	0xbe8f7c88	-0.28024697
18	0x3d544eba	0.051832892
19	0x3d125fd6	0.035735928
20	0xbd8a8a4d	-0.0676466
21	0xbd6b7c5b	-0.05749164
22	0x3d816376	0.06317799
23	0x3e34a94c	0.17642707
24	0xbf1e49d3	-0.61831397
25	0xbdf0011c	-0.117189616
26	0xbe358d98	-0.17729795
27	0xbe81b070	-0.25329924
28	0x3e0dc128	0.13843215
29	0x3d3189c2	0.043344267
30	0x3e11becc	0.1423294
31	0xbe254e67	-0.1614319
32	0x3d1b0e0b	0.03785519
33	0x3d2a8125	0.041627068
34	0xbd69dd74	-0.05709596
35	0x3e2ebef0	0.17065024
36	0xbe3d5965	-0.18491133
37	0xbdad2880	-0.084549904
38	0x3e0a67e7	0.13516198
39	0xbdede946	-0.11616759
40	0x3e28bcce	0.16478273
41	0xbcfc09b9	-0.030766355
42	0x3f3c2937	0.7350039
43	0x3e59a404	0.21253973
44	0xbc060b5c	-0.008181419
45	0x3dc7c362	0.09754063
46	0x3df8bdbe	0.121455655
47	0x3ecd75e1	0.40128997
48	0xbdae13b7	-0.08499854
49	0xbe6cd053	-0.23126344
50	0x3deb9193	0.115023755
51	0x3cc5b244	0.024132855
52	0x3de7e320	0.113226175
53	0x3d03d6a2	0.03218711
54	0x3da310f2	0.079622164
55	0x3e3b338e	0.18281385
56	0x3e278ed5	0.1636308
57	0x3daebf6f	0.08532607
58	0xbed5e400	-0.41775513
59	0x3e7895b1	0.24275853
60	0x3e1f6e14	0.15569335
61	0xbdc54e43	-0.09634068
62	0x3dc76a9b	0.0973713
63	0x3e1a10bd	0.15045448

bn1.running_mean f4 [64]
0	0xbe308221	-0.1723714
1	0x3f388dd9	0.7209144
2	0xbdb30479	-0.087410875
3	0x3d842b83	0.06453612
4	0xbdf512b6	-0.119664595
5	0x3e2c717a	0.16840163
6	0xbdf28f08	-0.11843687
7	0x3e74288b	0.23843591
8	0xbd8d6dbb	-0.06905695
9	0xbe412f66	-0.18865737
10	0x3dbe7358	0.09299344
11	0x3e48d209	0.19611372
12	0xbe2ba6b0	-0.16762805
13	0x3e980be5	0.29696575
14	0x3e150abf	0.1455488
15	0xbe680bcc	-0.2266075
16	0xbe8e5c72	-0.27804905
17	0xbe6570f0	-0.22406363
18	0xbc3a009d	-0.011352685
19	0xbe87e9f0	-0.26545668
20	0x3e7e8ca1	0.24858333
21	0x3e9b34a6	0.30313605
22	0x3b399e08	0.0028322954
23	0x3dc712b5	0.09720365
24	0x3d29c53e	0.04144787
25	0x3ab8e322	0.0014105777
26	0xbe9073b0	-0.28213263
27	0xbd89b205	-0.06723408
28	0x3e5ca0f9	0.21545781
29	0xbd574c8d	-0.05256324
30	0x3dd4b0d0	0.10385287
31	0x3dfb0686	0.122571036
32	0x3d20afb2	0.039230056
33	0xbe008a45	-0.12552746
34	0xbd5dc932	-0.054146953
35	0xbd0a521b	-0.033769708
36	0x3da204e7	0.07911091
37	0x3d4e48f2	0.050362535
38	0x3f1dd4ee	0.6165303
39	0xbe096b92	-0.13419941
40	0x3cf0915b	0.029366186
41	0xbeda3f95	-0.42626634
42	0xbe7cfdba	-0.24706164
43	0x3e7ddc7c	0.2479114
44	0x3dee9a9f	0.116505854
45	0xbe310a7c	-0.17289156
46	0x3e8f2c04	0.2796327
47	0x3e7fc3d9	0.24977054
48	0xbcc64fd0	-0.02420798
49	0xbc3595b8	-0.011083059
50	0xbcaeead3	-0.021352207
51	0xbdd8ca95	-0.105855145
52	0x3e49c5fd	0.19704433
53	0x3eb8ad77	0.36069843
54	0x3de968c0	0.113969326
55	0xba6809eb	-0.00088515755
56	0xbf209adf	-0.62736315
57	0xbdce4c5a	-0.10073157
58	0xbe9688a6	-0.2940113
59	0x3cc867f8	0.024463639
60	0xbcb5f657	-0.02221219
61	0xbe5819f8	-0.21103656
62	0x3e59e674	0.21279317
63	0x3e1bc7c3	0.15212922

bn1.running_var f4 [64]
0	0x3ce15c7e	0.027509924
1	0x3c45f44a	0.012082169
2	0x3d800070	0.062500834
3	0x3dae2f7d	0.085051514
4	0x3cbafadd	0.022824699
5	0x3d88b645	0.0667539
6	0x3d26b0c8	0.040695935
7	0x3d926a39	0.071491666
8	0x3dab099f	0.083514445
9	0x3d60c119	0.054871652
10	0x3d923932	0.071398154
11	0x3d13acd6	0.0360535
12	0x3d22c988	0.039742976
13	0x3d1caf2c	0.038252994
14	0x3dc36298	0.0954029
15	0x3d619e97	0.055082884
16	0x3d3edf03	0.0465994
17	0x3da3fee2	0.080075994
18	0x3d0092d3	0.031390022
19	0x3d9d51c2	0.0768161
20	0x3c68532b	0.014179985
21	0x3d4437e2	0.047904857
22	0x3d2872f6	0.04112526
23	0x3d98b1c5	0.07455782
24	0x3e09bd7c	0.13451189
25	0x3d3a4db5	0.045484263
26	0x3de06ed9	0.109586425
27	0x3dafd1c4	0.085849315
28	0x3cd1f96e	0.025631633
29	0x3d1be7d1	0.038062874
30	0x3d66b0b0	0.056320846
31	0x3d3b4e9f	0.045729276
32	0x3ced898e	0.028996255
33	0x3c8fb854	0.01754395
34	0x3d1ec5b5	0.038762767
35	0x3d25e5ca	0.040502347
36	0x3dd936d0	0.10606158
37	0x3d99bb85	0.0750647
38	0x3ce89611	0.02839187
39	0x3e19f081	0.15033151
40	0x3df13206	0.11777119
41	0x3d39e3cb	0.045383256
42	0x3c822b17	0.015889687
43	0x3cf0ea2c	0.029408537
44	0x3d3937e6	0.045219325
45	0x3c82451b	0.015902093
46	0x3d8ab0fb	0.067720376
47	0x3d020810	0.03174597
48	0x3d13a4b3	0.03604574
49	0x3e2484d8	0.16066301
50	0x3d3a26ed	0.04544728
51	0x3d5c86ff	0.05383968
52	0x3d9e6b5e	0.077353224
53	0x3cab11f2	0.02088258
54	0x3d602586	0.054723285
55	0x3cc65069	0.024208264
56	0x3d1cd7e1	0.038291816
57	0x3d4e5a10	0.05037886
58	0x3d252ddf	0.04032695
59	0x3e03481e	0.1282048
60	0x3cc2cced	0.023779357
61	0x3d32890f	0.04358774
62	0x3d5fad6b	0.054608744
63	0x3ce227ee	0.02760693

conv2.weight f4 [64, 64, 3]
0	0x3dc4ad07	0.09603315
1	0xbe830266	-0.25587767
2	0xbec03dff	-0.375473
3	0xbf0d8dc1	-0.55294424
4	0xbe543fad	-0.20727415
5	0x3d8647ec	0.06556687
6	0xbd25e876	-0.040504895
7	0xbd9b8e9a	-0.075955585
8	0xbe37632c	-0.17908925
9	0x3dcad7a2	0.0990441
10	0x3eba6c64	0.3641082
11	0x3e92b8cd	0.28656617
12	0xbde0e8e4	-0.1098192
13	0xbe5b74a7	-0.21431218
14	0xbe6428b3	-0.2228115
15	0xbd9bee8e	-0.0761386
16	0xbdee7a7e	-0.11644457
17	0xbdf4eb06	-0.1195889
18	0xbeb5a0fa	-0.35474378
19	0xbe87c7ef	-0.26519725
20	0xbdf4286b	-0.119217716
21	0xbec9e608	-0.39433312
22	0xbf0d04f1	-0.55085665
23	0xbee57af7	-0.44820377
24	0xbd5fd97f	-0.05465078
25	0xbe821436	-0.25406045
26	0xbea25466	-0.31705016
27	0x3db4d45d	0.088295676
28	0xbdec8e3c	-0.115505666
29	0xbe232a3c	-0.1593408
30	0x3e40745e	0.1879439
31	0x3e930017	0.28711006
32	0x3e2627ae	0.16226074
33	0xbe461b37	-0.19346319
34	0xbe4aae17	-0.19792973
35	0xbe935194	-0.28773177
36	0xbd9c272b	-0.07624658
37	0x3da99e48	0.08282143
38	0x3d90ab10	0.070638776
39	0xbe3fa309	-0.18714537
40	0xbd3adf27	-0.04562297
41	0xbe13f45d	-0.14448686
42	0x3df2bd40	0.11852503
43	0x3ddcdb20	0.10783982
44	0xbd1f13f5	-0.038837392
45	0xbace5ff3	-0.0015745148
46	0x3e4db9af	0.20090364
47	0x3e0d7222	0.1381307
48	0xbeda2a5b	-0.4261044
49	0xbeabab6c	-0.33529222
50	0xbd95582e	-0.072922096
51	0x3e86e101	0.2634354
52	0x3e5e3a62	0.21701959
53	0x3e4aa9f8	0.197914
54	0xbd870d96	-0.06594388
55	0xbdf2e4a2	-0.118600145
56	0xbde58815	-0.11207596
57	0xbde5d863	-0.11222913
58	0xbc39b870	-0.011335477
59	0x3cdae488	0.0267203
60	0x3dcebeae	0.10094963
61	0xbcdd2d5d	-0.02699917
62	0xbe76ba6c	-0.24094552
63	0x3cbb59ee	0.02287003
64	0xbe52439a	-0.205336
65	0xbe1f1668	-0.15535891
66	0xbe9da175	-0.30787244
67	0xbe9dd8df	-0.30829522
68	0xbe796ee0	-0.24358702
69	0xbe3e5f0a	-0.18590942
70	0xbd321a41	-0.04348207
71	0x3e5cbfab	0.2155749
72	0xbe4069d4	-0.1879037
73	0xbe453275	-0.19257529
74	0xbe8f3288	-0.2796824
75	0x3d4346a2	0.047674783
76	0x3d917572	0.07102479
77	0xbd9adec9	-0.07562024
78	0xbdea5270	-0.11441505
79	0xbe747db3	-0.23876075
80	0xbead58df	-0.33856866
81	0xbe51ba57	-0.2048124
82	0xbe7a3e61	-0.24437858
83	0xbe96371c	-0.2933892
84	0xbde43651	-0.111431725
85	0xbe1d6c10	-0.15373254
86	0xbe0b93ea	-0.13630643
87	0xbd86bd92	-0.065791264
88	0x3d1335ad	0.03593986
89	0xbdd9080f	-0.1059724
90	0x3ee4e91f	0.44709107
91	0x3e9a9aed	0.30196324
92	0x3dd78c93	0.10524859
93	0xbf560f1b	-0.836168
94	0xbf21e796	-0.63244
95	0xbe67c9ce	-0.22635576
96	0xbe42675e	-0.18984744
97	0xbe85bed1	-0.26122144
98	0xbe5cc55b	-0.2155966
99	0xbeaebd1f	-0.34128663
100	0xbe345377	-0.17609964
101	0x3df1efad	0.11813293
102	0xbdc3669a	-0.09541054
103	0xbd9940ab	-0.074830376
104	0xbd3f89f1	-0.04676241
105	0xbde968df	-0.11396956
106	0xbe65e7d4	-0.22451717
107	0xbe65309b	-0.22381823
108	0xbd57747d	-0.052601326
109	0x3dcbf5ed	0.09959016
110	0x3e561e80	0.20910072
111	0x3cbd4796	0.023105424
112	0xbdc25b00	-0.09490013
113	0xbe897b7b	-0.2685202
114	0x3e1cb991	0.15305163
115	0x3ddee738	0.10883945
116	0x3d93135c	0.07181427
117	0x3d99f89b	0.07518121
118	0xbd08efe1	-0.03343189
119	0x3c90d87d	0.017681355
120	0xbe858464	-0.2607757
121	0x3d07d2ec	0.033160135
122	0x3df68815	0.12037674
123	0xbe7f60a3	-0.24939208
124	0xbe8ebe6f	-0.27879664
125	0xbdbc1fbc	-0.0918574
126	0xbd053317	-0.032519426
127	0xbe27d93b	-0.1639146
128	0xbe3dc7be	-0.18533227
129	0xbd3e2e7e	-0.046431057
130	0xbdbdcae9	-0.09267218
131	0xbcb4ac13	-0.022054708
132	0xbd9d51b2	-0.07681598
133	0x3d75947c	0.05995606
134	0x3e857eec	0.26073396
135	0x3ce9f6f6	0.028560143
136	0xbdf20600	-0.11817551
137	0xbe32d539	-0.1746415
138	0xbdc8dc9a	-0.098077014
139	0xbeb439da	-0.35200387
140	0xbf09f3a5	-0.538874
141	0x3d08744d	0.033314038
142	0xbd8f96a6	-0.07011156
143	0xbcd14c5d	-0.025549108
144	0xbe513eb5	-0.20434077
145	0xbddc3759	-0.10752744
146	0xbd3b6fc6	-0.045760892
147	0xbdca3f95	-0.098754086
148	0xbe8a0bae	-0.26962036
149	0xbe84b16b	-0.2591661
150	0x3e5f5905	0.21811302
151	0x3e75bcfc	0.23997873
152	0x3e01f207	0.12689982
153	0x3de2c3d3	0.11072507
154	0x3ec2879b	0.37994084
155	0x3ece6df2	0.40318257
156	0xbc7c26db	-0.015390123
157	0xbdeaa60a	-0.11457451
158	0xbe5c7549	-0.21529116
159	0xbe8c85c9	-0.2744582
160	0xbf23fb17	-0.6405501
161	0xbf5b1709	-0.85582024
162	0x3ea812c8	0.3282683
163	0x3e3b338b	0.18281381
164	0x3cd3d272	0.025857184
165	0xbdf9ec63	-0.1220329
166	0x3d11a4cf	0.035557564
167	0x3e19fa3f	0.15036868
168	0xbe65e31f	-0.22449921
169	0xbb124107	-0.0022316591
170	0x3e0d1017	0.13775669
171	0xbe7b834b	-0.24561803
172	0xbe4e25bf	-0.20131586
173	0xbe589a5a	-0.2115263
174	0xbe03ba2e	-0.1286399
175	0x3cec1350	0.028817803
176	0x3b83acfe	0.004018425
177	0xbeedf108	-0.46472955
178	0xbec168ac	-0.3777517
179	0xbe8f2d97	-0.2796447
180	0x3e9958dd	0.2995061
181	0xb86b1a68	-5.605296e-05
182	0xbdc2009c	-0.094727725
183	0xbc82a78a	-0.01594903
184	0x3dc104f0	0.0942477
185	0x3db6937a	0.08914848
186	0xbe7a092d	-0.24417563
187	0xbdf78260	-0.12085414
188	0xbdeada22	-0.11467387
189	0xbe4a47c9	-0.19753946
190	0xbe7469dd	-0.23868509
191	0xbda3b729	-0.079939194
192	0x3e393f86	0.18090639
193	0x3eb3461a	0.3501442
194	0x3e634e50	0.22197843
195	0x3db6e38c	0.0893012
196	0xbe6a1c5c	-0.2286238
197	0xbe893958	-0.26801562
198	0xbe9196a0	-0.2843523
199	0xbd916a88	-0.07100397
200	0x3e027a11	0.12741877
201	0xbf049a3d	-0.5179785
202	0xbf281d84	-0.6567004
203	0xbf02a48c	-0.5103233
204	0xbe51c6e4	-0.20486027
205	0xbdf5db29	-0.12004692
206	0x3dbb5833	0.09147682
207	0xbe15ebfb	-0.146408
208	0xbe549735	-0.20760806
209	0xbdf1d52c	-0.118082374
210	0xbdb9a3c8	-0.09064442
211	0xbd7c4d8d	-0.061597396
212	0xbdec1112	-0.115266934
213	0x3e3acc2a	0.18241945
214	0x3de8bd83	0.113642715
215	0xbcec3171	-0.02883217
216	0x3e40f598	0.18843687
217	0xbbd1c46f	-0.0064015905
218	0xbe8be32e	-0.27321762
219	0xbec0eabf	-0.37679097
220	0xbf048d6e	-0.51778305
221	0xbef0832b	-0.46975073
222	0xbeb6cdb1	-0.35703805
223	0xbe8d601b	-0.27612385
224	0x3d697431	0.056995574
225	0xbe84ec85	-0.259617
226	0xbeb7bf58	-0.3588817
227	0xbeba624b	-0.36403117
228	0xbddf523f	-0.10904359
229	0xbd4f1dea	-0.050565638
230	0xbd982464	-0.07428816
231	0xbf404a40	-0.75113297
232	0xbf60a581	-0.8775254
233	0xbf0b0cf5	-0.54316646
234	0x3d002ace	0.03129082
235	0x3cc77630	0.024348348
236	0x3de83ad9	0.11339349
237	0xbe673d7d	-0.2258205
238	0xbe1b3d89	-0.15160193
239	0xbdc807cd	-0.09767113
240	0xbdeeccd8	-0.116601646
241	0xbd96fc2c	-0.07372317
242	0x3d8c5233	0.06851616
243	0x3c988cf4	0.0186219
244	0x3d2166e6	0.039404772
245	0x3e4895ec	0.1958844
246	0xbe743544	-0.23848444
247	0xbea957b9	-0.3307474
248	0xbe5c08ca	-0.21487728
249	0x3d4bd72c	0.04976575
250	0x3cfb437d	0.03067183
251	0xbd968ce4	-0.073510915
252	0xbe498d9f	-0.1968293
253	0xbd7d63eb	-0.061862867
254	0x3d6a9c74	0.05727811
255	0x3e6165da	0.2201151

conv2.bias f4 [64]
0	0xbd0cd3db	-0.03438173
1	0x3cd5d409	0.026102083
2	0x3d5f3734	0.054496005
3	0x3cb81291	0.02246979
4	0x3d58a982	0.05289603
5	0xbd8bdf32	-0.068296805
6	0x3c9fc475	0.019502858
7	0xbcaacfa5	-0.020850966
8	0x3d907a5c	0.07054588
9	0x3cf04a9f	0.029332457
10	0x3da1728b	0.078831755
11	0xbc61b423	-0.013775858
12	0x3ce7cd7d	0.028296227
13	0x3d5ae309	0.053439174
14	0xbd93bc9b	-0.07213708
15	0xbd2bffc4	-0.041991964
16	0xbd5de7be	-0.054176085
17	0xbd2ed40a	-0.042682685
18	0x3bc4eaa8	0.0060094185
19	0x3c53728c	0.012905728
20	0x3d6af055	0.057358105
21	0x3cba846c	0.022768222
22	0x3d4aa52a	0.04947392
23	0x3d53d327	0.051715042
24	0xbd82e4c1	-0.063912876
25	0xbbc5e238	-0.0060389303
26	0xbda4562e	-0.0802425
27	0xbb3a4411	-0.0028421918
28	0x3d5b6192	0.053559847
29	0xbd8c94c8	-0.06864315
30	0xbd64d008	-0.055862457
31	0xbca99261	-0.020699682
32	0xbc64db17	-0.013968251
33	0xb9c9eb49	-0.0003851301
34	0x3ca9ff93	0.02075175
35	0x3cef49f7	0.029210074
36	0x3d003f55	0.031310398
37	0x3ca68def	0.020331351
38	0x3d015735	0.031577308
39	0x3ccf37a5	0.025295088
40	0xbd8641c5	-0.06555513
41	0xbd8fa37b	-0.07013603
42	0x3d47dd9e	0.048795335
43	0x3d764ade	0.060129993
44	0x3d96eab9	0.073689885
45	0xbcf17eeb	-0.029479465
46	0x3ceaaba9	0.028646307
47	0xbaac20d0	-0.0013132337
48	0xbd86e453	-0.06586518
49	0xbc9c9832	-0.019115541
50	0x3dc1cc61	0.0946281
51	0x3d30ca1c	0.043161497
52	0xbd5b62e6	-0.053561114
53	0xbcfb25e0	-0.030657709
54	0x3d0b6e0f	0.034040507
55	0xbc9c4a8e	-0.01907852
56	0xbc04f344	-0.00811464
57	0x3ca111eb	0.019661864
58	0xbd38cc0d	-0.045116473
59	0x3bf15104	0.007364394
60	0xbc2291dd	-0.009922472
61	0xbccb87e3	-0.02484507
62	0xbd887a8f	-0.06664001
63	0x3d3828c4	0.044960752

bn2.weight f4 [64]
0	0x3f8a446d	1.0802132
1	0x3fb7dd89	1.4364482
2	0x3fab4c06	1.3382576
3	0x3f8844e8	1.0646029
4	0x3f438d7e	0.76387775
5	0x3f683674	0.9070809
6	0x3f88c188	1.0684061
7	0x3fa5ec6f	1.2962779
8	0x3f4782ee	0.7793416
9	0x3fdb77de	1.7145956
10	0x3fbde1be	1.4834516
11	0x3f8001c9	1.0000545
12	0x3fb484d3	1.4103035
13	0x3f4556ee	0.7708577
14	0x3f6d638a	0.9273001
15	0x3f960e0b	1.1723036
16	0x3fb06571	1.3780957
17	0x3f3d682d	0.73987085
18	0x3fb8d401	1.4439698
19	0x3f92c23e	1.1465528
20	0x3f826c9a	1.0189393
21	0x3fa4a554	1.2862954
22	0x3f6f1c2b	0.93402356
23	0x3fb67094	1.4253106
24	0x3fb705cd	1.4298645
25	0x3f8418bb	1.0320047
26	0x3fc30641	1.5236284
27	0x3f80bd43	1.0057758
28	0x3fa36771	1.2765943
29	0x3f97ae44	1.1850057
30	0x3f99a9fd	1.2005001
31	0x3f8790af	1.0591029
32	0x3fb607be	1.4221113
33	0x3fae1d17	1.3602628
34	0x3fca4963	1.5803646
35	0x3f84f307	1.0386666
36	0x3f770a39	0.96499974
37	0x3f7e2756	0.9927877
38	0x3f8fb9a0	1.1228523
39	0x3fc54828	1.5412645
40	0x3f9813c9	1.1881038
41	0x3f9b073d	1.2111584
42	0x3fa481b0	1.2852077
43	0x3fca535a	1.5806687
44	0x3f786c6d	0.97040445
45	0x3f7f7d66	0.9980072
46	0x3fb1b8b7	1.3884495
47	0x3f5a7a69	0.85343033
48	0x3f8a8a4a	1.0823452
49	0x3fafe58c	1.3741927
50	0x3f956316	1.1670864
51	0x3f973cda	1.1815445
52	0x3fadc1cb	1.3574766
53	0x3fa8b81e	1.3181188
54	0x3f929772	1.1452467
55	0x3f963a10	1.1736469
56	0x3f950522	1.1642191
57	0x3ff5e1ca	1.920953
58	0x3fb8f880	1.4450836
59	0x3f87b728	1.060277
60	0x3f84353d	1.0328747
61	0x3f8a444b	1.0802091
62	0x3f98656f	1.1905955
63	0x3f8738e8	1.0564241

bn2.bias f4 [64]
0	0xbe882a51	-0.26594785
1	0xbeb08668	-0.34477544
2	0xbec336e3	-0.38127813
3	0x3c247425	0.010037457
4	0xbec60694	-0.38676894
5	0x3dcd8083	0.10034277
6	0xbe3f4e6b	-0.18682258
7	0x3dd26d58	0.10274762
8	0xbeeee4a0	-0.46658802
9	0xbe5682a1	-0.20948268
10	0xbe9fe02b	-0.31225714
11	0x3e955fab	0.2917455
12	0x3d867184	0.0656462
13	0xbe490186	-0.19629487
14	0xbe208868	-0.15677035
15	0xbed4aec3	-0.41539583
16	0xbe3af7a9	-0.18258537
17	0xbd79d9a1	-0.060998563
18	0xbe8a0885	-0.26959625
19	0xbe4b575f	-0.19857548
20	0xbe40a2dc	-0.18812126
21	0xbe3d9514	-0.185139
22	0xbe89ca81	-0.2691231
23	0xbe0b286e	-0.13589641
24	0xbed75860	-0.42059612
25	0xbe5c6d6f	-0.2152612
26	0xbeaeb709	-0.3412402
27	0xbe37d489	-0.1795217
28	0xbe822cc9	-0.25424793
29	0xbe91fea3	-0.28514585
30	0xbe2c3cd0	-0.16820073
31	0xbdc0a7c5	-0.094069995
32	0xbcfef6ef	-0.031123606
33	0x3e2fa314	0.17152053
34	0xbee01061	-0.43762496
35	0x3d0b2e6c	0.03397982
36	0xbe1e4a96	-0.1545814
37	0xbe8ce8af	-0.27521273
38	0xbde0ab04	-0.10970119
39	0xbe5f4b8d	-0.21806164
40	0x3dc2c2a0	0.09509778
41	0xbe91abe7	-0.28451464
42	0xbea1582c	-0.31512582
43	0x3dd18820	0.10231042
44	0xbee21ab5	-0.44161
45	0xbe45b591	-0.19307543
46	0xbec808c3	-0.39069185
47	0xbe70c4d3	-0.23512582
48	0x3eaba1a0	0.33521748
49	0xbeb099e5	-0.34492412
50	0xbe5f7db7	-0.218253
51	0xbf231e76	-0.63718355
52	0x3d96d39a	0.073645785
53	0xbea5caba	-0.3238123
54	0xbdb5d29f	-0.088780634
55	0xbebe5671	-0.37175325
56	0x3dc87771	0.09788407
57	0x3e4a0678	0.1972903
58	0xbef95374	-0.48696482
59	0xbe9d6ed9	-0.30748633
60	0xbed00682	-0.40629965
61	0xbcbea049	-0.02326979
62	0x3be1df00	0.0068930387
63	0xbeaa0e7c	-0.33214176

bn2.running_mean f4 [64]
0	0xc051be05	-3.2772229
1	0xc01ecc2b	-2.4812114
2	0xc06422b7	-3.5646188
3	0xc042d8ba	-3.044478
4	0xbf8ca54d	-1.0987946
5	0xc021ce45	-2.5282147
6	0xc04ee933	-3.2329834
7	0xc0c2bf4b	-6.085851
8	0xbfc9cd9a	-1.576587
9	0xc00b0d30	-2.17268
10	0xbfe4357b	-1.7828821
11	0xc092eabe	-4.591155
12	0xc064a211	-3.5723917
13	0xc016ddf5	-2.3572972
14	0xc0571a60	-3.3609848
15	0xc06542e5	-3.582208
16	0xc0370b4f	-2.8600652
17	0x3f4d6722	0.80235493
18	0xc032c754	-2.793416
19	0xbf8ad7f2	-1.0847151
20	0xbfa4d866	-1.287854
21	0xc00a6def	-2.1629598
22	0xc0817b39	-4.046292
23	0xbf8b813a	-1.0898812
24	0xc0775732	-3.864697
25	0xc00fdda4	-2.2479029
26	0xc013ae77	-2.3075235
27	0xc001b4b8	-2.0266552
28	0xc047b5dd	-3.120475
29	0xbf679de0	-0.90475273
30	0xc0325df3	-2.7869842
31	0xbe903e98	-0.28172755
32	0xc0602cbd	-3.5027306
33	0xc0933695	-4.600413
34	0xbf8907de	-1.0705526
35	0xbe309410	-0.17243981
36	0xc082ec94	-4.091379
37	0xbfd154d1	-1.6354009
38	0xc0c6d5f2	-6.2136164
39	0xc02da05c	-2.7129126
40	0xbf965d6a	-1.1747258
41	0xbff8d90c	-1.9441237
42	0xbfccdf4b	-1.6005644
43	0xc0d99ec2	-6.8006296
44	0xc0612865	-3.5180905
45	0xc035c993	-2.840428
46	0xc04508dd	-3.078666
47	0xbfce80e9	-1.613309
48	0xc038c56d	-2.88705
49	0xc0630e4d	-3.5477479
50	0xc073f402	-3.811768
51	0xc07c2e51	-3.940327
52	0xc0b36c71	-5.6069875
53	0xc050ad6a	-3.2605844
54	0xc065815a	-3.58602
55	0xc0bd06ef	-5.9070964
56	0xbf969b67	-1.1766175
57	0xc1087f1c	-8.531033
58	0xc0445b68	-3.068079
59	0xc027027c	-2.6095266
60	0x403cad23	2.9480674
61	0xc0687b3b	-3.6325214
62	0xc01bd97a	-2.4351487
63	0xc050a66e	-3.260158

bn2.running_var f4 [64]
0	0x4273410a	60.813515
1	0x428424d0	66.0719
2	0x425dfebe	55.49877
3	0x426ec167	59.68887
4	0x423efaad	47.7448
5	0x42982c2b	76.086266
6	0x429f53d3	79.66372
7	0x42f77b3e	123.74071
8	0x4226f2d3	41.737133
9	0x42a82fdc	84.093475
10	0x4247dbcf	49.964657
11	0x429c335f	78.100334
12	0x42f16b80	120.70996
13	0x42a7eb21	83.959236
14	0x428225e3	65.074
15	0x426c1778	59.02292
16	0x4276b0e8	61.67276
17	0x425fac9e	55.91857
18	0x42af9545	87.79154
19	0x422def5e	43.483757
20	0x422eb6fc	43.678696
21	0x429a3b98	77.116394
22	0x4284f50a	66.47859
23	0x42699043	58.39088
24	0x428a6e42	69.21535
25	0x4263ecc6	56.981224
26	0x425e959e	55.64611
27	0x42a873d7	84.22625
28	0x4295927b	74.786095
29	0x422d66c2	43.35035
30	0x426d168f	59.27203
31	0x4254c190	53.189026
32	0x428805c2	68.011246
33	0x42fbe86c	125.95395
34	0x41dcb803	27.58985
35	0x424bb968	50.93106
36	0x428827ee	68.07799
37	0x42287138	42.110565
38	0x43048b50	132.54419
39	0x428cf7a9	70.48371
40	0x42978bd8	75.77313
41	0x42711183	60.2671
42	0x420e006c	35.500412
43	0x4309c216	137.75815
44	0x424f3d4b	51.809856
45	0x4230a873	44.1645
46	0x424b7401	50.863285
47	0x426675f6	57.615196
48	0x42aa68f6	85.205
49	0x42683b3d	58.05785
50	0x42715f36	60.34298
51	0x42719834	60.398636
52	0x432194aa	161.58072
53	0x426f37a4	59.804337
54	0x42b12691	88.575325
55	0x42b06a4e	88.20763
56	0x4292f719	73.48261
57	0x4340c2ac	192.76044
58	0x4255d540	53.458252
59	0x425f0540	55.755127
60	0x4298e5f6	76.44914
61	0x42c200b3	97.001366
62	0x42825fe1	65.18726
63	0x423f83fa	47.878883

conv3.weight f4 [64, 64, 3]
0	0xbe4e03e4	-0.20118672
1	0xbdab9615	-0.08378235
2	0x3d7b8791	0.061408583
3	0xbe41704f	-0.18890499
4	0xbe0e295a	-0.13882962
5	0xbddeafb1	-0.10873354
6	0x3ee2b299	0.44276884
7	0x3ebb73e3	0.36611852
8	0x3e5fcb03	0.21854787
9	0xbcae25c2	-0.021258239
10	0xbcdf811f	-0.02728325
11	0x3d09b175	0.0336165
12	0xbe425a3f	-0.18979739
13	0xbeb7f431	-0.3592849
14	0xbed1e319	-0.40993574
15	0xbd9c7bb7	-0.07640784
16	0xbd3de776	-0.046363316
17	0x3d94f159	0.07272596
18	0x3eb7c282	0.35890585
19	0x3cbe7cce	0.02325287
20	0xbe5766c1	-0.21035291
21	0x3d9478eb	0.07249626
22	0xbdf20598	-0.11817473
23	0xbeac9de1	-0.33714202
24	0x3e759f1d	0.23986478
25	0x3d90f890	0.070786595
26	0xbdc37038	-0.095428884
27	0xbf170ae2	-0.5900098
28	0xbf47a14d	-0.779805
29	0xbf33a388	-0.70171404
30	0x3d807567	0.06272393
31	0x3d19c69e	0.03754293
32	0x3dbec06a	0.09314044
33	0xbd878d61	-0.06618763
34	0xbd1aad84	-0.037763134
35	0xbd9c3e00	-0.07629013
36	0x3e4e805c	0.20166153
37	0x3e6068de	0.21915004
38	0x3e9d41a8	0.30714154
39	0xbe2985cf	-0.1655495
40	0xbeb36fa2	-0.35046107
41	0xbe9a2d26	-0.3011257
42	0xbe19a061	-0.15002586
43	0x3e06fd63	0.13182597
44	0x3e9d634f	0.3073983
45	0xbdb85664	-0.09000853
46	0x3e8470a3	0.25867185
47	0x3eb33657	0.35002396
48	0xbe5854db	-0.2112612
49	0xbe1fa18d	-0.1558897
50	0xbd68fb0a	-0.056880035
51	0xbe590c9c	-0.21196216
52	0xbd137cfa	-0.03600786
53	0x3e030a71	0.12796952
54	0xbe386d2d	-0.18010397
55	0xbcc6de0a	-0.024275798
56	0xbd81ff70	-0.06347549
57	0xbebe4be4	-0.37167275
58	0xbe88cb51	-0.26717618
59	0xbdccf2d9	-0.10007257
60	0xbd44c856	-0.048042618
61	0xbde2c430	-0.11072576
62	0xbe3e6200	-0.18592072
63	0xbdfc4a36	-0.12318842
64	0xbeb9f27c	-0.36317813
65	0xbebff4dd	-0.37491503
66	0xbe88526f	-0.26625392
67	0xbe2d8f53	-0.16949205
68	0xbdd7ff9b	-0.105468
69	0x3e62a9cc	0.22135085
70	0x3e01e1fb	0.12683861
71	0x3cd0d40f	0.025491742
72	0xbbabf127	-0.0052472535
73	0x3d1aaf80	0.037765026
74	0x3e26c7b2	0.16287115
75	0x3eaaa72d	0.3333067
76	0x3e05dcdf	0.13072537
77	0x3ddbdd8a	0.107356146
78	0xbe4c5621	-0.1995473
79	0xbe82d041	-0.2554951
80	0xbe8b14e6	-0.27164382
81	0x3d6411ef	0.055681165
82	0xbd8f73f4	-0.07004538
83	0xbe1b9405	-0.15193184
84	0x3ea286cf	0.31743476
85	0x3e993393	0.2992216
86	0x3e51d5fe	0.20491788
87	0x3e644db0	0.2229526
88	0x3c356bea	0.011073092
89	0xbdc71612	-0.097210065
90	0x3daddcb4	0.084893614
91	0x3e89d235	0.26918188
92	0x3e651af8	0.22373569
93	0x3dc63139	0.09677357
94	0x3e033267	0.12812196
95	0x3da55b7e	0.080740914
96	0x3c89c117	0.016815705
97	0x3c3689bb	0.011141236
98	0xbd47cc07	-0.04877856
99	0xbbfbe108	-0.007686738
100	0x3da4ce64	0.080471784
101	0x3ddffc46	0.10936789
102	0x3e5b36f4	0.21407682
103	0xbcd6207d	-0.026138538
104	0xbe85f0f5	-0.26160398
105	0xbe249c8c	-0.16075343
106	0xbe13a2fa	-0.1441764
107	0xbb3f5171	-0.002919283
108	0x3e8ffadc	0.28121078
109	0x3e8804d9	0.26566198
110	0x3ecc1fe1	0.39868072
111	0xbe976615	-0.2957007
112	0xbd4782e3	-0.048708808
113	0xbaccc342	-0.0015622156
114	0x3d39f4d8	0.045399517
115	0xbe49897b	-0.19681351
116	0xbe55f7b1	-0.20895268
117	0x3aa4a922	0.0012562613
118	0x3a93ceb8	0.0011276817
119	0xbd83bd92	-0.06432642
120	0x3d51eda7	0.051252034
121	0x3e1374f1	0.14400078
122	0x3e195f1b	0.14977686
123	0xbe0e500d	-0.13897724
124	0xbdf95d75	-0.12176029
125	0xbd77c72b	-0.060492676
126	0xbdb7af11	-0.08968938
127	0x3e271920	0.16318178
128	0x3e8e5103	0.27796182
129	0xbe284ce2	-0.16435578
130	0xbee3b335	-0.44472662
131	0xbefe9170	-0.49720335
132	0x3ed7d18e	0.42152065
133	0x3ecbf1ec	0.3983301
134	0x3e199410	0.14997888
135	0x3dd9a2b4	0.10626736
136	0xbd4898b1	-0.048973743
137	0xbdc7cf6e	-0.09756361
138	0xbd8b0dd4	-0.06789747
139	0xbd9c8681	-0.07642842
140	0x3c3012fb	0.010746713
141	0xbd9b0f8e	-0.07571326
142	0x3dd03015	0.10165421
143	0x3e09eee1	0.13470031
144	0xbd649ac6	-0.055811666
145	0x3c9105bd	0.017702932
146	0xbca2d62a	-0.019877512
147	0xbbe784d2	-0.007065394
148	0xbd704129	-0.05865589
149	0xbe938595	-0.28812853
150	0xbd1d1bb5	-0.0383565
151	0x3dfe242c	0.12409243
152	0x3df83351	0.12119163
153	0xbd1a0144	-0.037598863
154	0xbdeacb7f	-0.11464595
155	0xbdc3bd9f	-0.09557652
156	0x3e251eec	0.16125077
157	0x3b122b83	0.0022303767
158	0x3d61d7dc	0.0551375
159	0x3e8d538f	0.27602813
160	0x3d8c6367	0.06854897
161	0x3ce9ed0e	0.02855542
162	0x3f286db0	0.6579237
163	0x3f69b6af	0.9129438
164	0x3f4858dd	0.78260595
165	0xbdbdef09	-0.09274108
166	0xbd2cd2b3	-0.042193126
167	0xbd722fb5	-0.05912753
168	0xbe85c1eb	-0.2612451
169	0xbe052f13	-0.13006239
170	0xbd5d7aa5	-0.05407204
171	0x3e3138b2	0.17306784
172	0xbd720ca7	-0.059094097
173	0xbd34336b	-0.04399435
174	0x3e9897a7	0.29803202
175	0x3e36c34a	0.17847934
176	0x3dd120ba	0.1021132
177	0xbd673b2e	-0.056452923
178	0x3c6a4cb4	0.014300514
179	0x3d51e20c	0.051240966
180	0xbd934e0c	-0.07192621
181	0xbdb6f31b	-0.089330874
182	0x3daed2dd	0.08536313
183	0xbdbf1311	-0.093298085
184	0xbe17075d	-0.14748903
185	0x3d441e2d	0.04788034
186	0x3daa0f0e	0.08303653
187	0x3e0b32f6	0.13593659
188	0x3dfe5ab0	0.12419641
189	0x3f0f7950	0.56044483
190	0x3f1ca1b6	0.6118425
191	0x3efc7c57	0.49313614
192	0xbdf349ab	-0.118792854
193	0xbeb74094	-0.35791457
194	0xbeaa179c	-0.33221138
195	0x3ecb7c99	0.39743498
196	0x3ed2880b	0.41119418
197	0x3efda648	0.49540925
198	0xbe7e8956	-0.24857077
199	0xbea01263	-0.31264028
200	0xbe67e208	-0.22644818
201	0xbe1e6dd9	-0.15471591
202	0xbe9edd73	-0.31028327
203	0xbe827d6f	-0.25486323
204	0x3e9f3563	0.31095418
205	0x3e571784	0.21005064
206	0x3e2d00e0	0.16894865
207	0xbc8dec6f	-0.017324654
208	0xbe9475d0	-0.28996134
209	0xbe9fe712	-0.3123098
210	0x3d8b939f	0.06815266
211	0x3d4c092f	0.049813446
212	0x3cbf45cd	0.023348713
213	0x3c98e82d	0.018665398
214	0x3d9991ea	0.07498534
215	0x3e0f251b	0.13978998
216	0x3e67e11e	0.22644469
217	0x3e8ad571	0.27115968
218	0x3e40eb95	0.18839867
219	0x3e528f71	0.20562531
220	0x3eb962ff	0.3620834
221	0x3ec6ceb3	0.38829574
222	0xbe3d8105	-0.18506248
223	0xbdad9505	-0.08475689
224	0x3d0a0537	0.03369638
225	0x3d5c08b2	0.05371923
226	0xbc665642	-0.014058651
227	0xbc08714e	-0.008327795
228	0xbdd3b3c4	-0.10337022
229	0x3d5461aa	0.051850952
230	0x3d9b408e	0.07580672
231	0x3ddaa9cb	0.10676917
232	0x3e4bd274	0.199045
233	0x3e2ee47c	0.17079347
234	0xbd606205	-0.05478098
235	0xbe3bdff1	-0.18347146
236	0xbe0413b6	-0.12898144
237	0x3e8550fc	0.2603835
238	0x3e1265ba	0.14296618
239	0x3e4ba402	0.19886783
240	0xbe892936	-0.26789254
241	0xbf29dde9	-0.66354233
242	0xbf29695d	-0.66176397
243	0x3ca6f09c	0.020378403
244	0x3d6b7dfe	0.057493202
245	0x3cbdb4bd	0.023157472
246	0xbdcd866f	-0.10035407
247	0xbe3cdeed	-0.18444414
248	0xbd80ede2	-0.062953725
249	0x3d07324a	0.033006944
250	0xbd9044e8	-0.07044393
251	0xbddf3170	-0.10898101
252	0xbcb61310	-0.022225887
253	0x3cd193a6	0.0255831
254	0x3d660c17	0.056163874
255	0x3ea7210a	0.32642394

conv3.bias f4 [64]
0	0x3d4ded47	0.050275113
1	0xbd14af94	-0.036300257
2	0xbc322941	-0.0108740935
3	0x3ca0fc37	0.019651515
4	0xbc8eea1f	-0.017445622
5	0xbd299850	-0.041405022
6	0xbd886684	-0.06660178
7	0x3a9c5e79	0.001193001
8	0x3c601437	0.013676695
9	0x3b983e7a	0.0046461197
10	0xbd515057	-0.05110201
11	0xbd05a1d0	-0.03262502
12	0xbd857284	-0.06515983
13	0xbd5c996e	-0.05385726
14	0xbb280274	-0.0025636228
15	0xbc7d7909	-0.015470752
16	0x3d047ddc	0.03234659
17	0xbd0c14d6	-0.03419956
18	0x3d2fbbff	0.042903896
19	0xbdc5e1eb	-0.09662231
20	0x3c7a59c0	0.015280187
21	0x3cad4730	0.021152109
22	0x3c6340f4	0.0138704665
23	0xbda6e84f	-0.08149778
24	0xbd73c237	-0.05951139
25	0x3d29ad71	0.041425172
26	0x3c4f257e	0.012643216
27	0x3aa8d1d3	0.0012879915
28	0x3d835ad3	0.06413808
29	0x3d4892f1	0.04896826
30	0xbc411c3c	-0.011786517
31	0xbd3697e5	-0.04457845
32	0xbcdc97e0	-0.026927888
33	0xbd4ec452	-0.050480194
34	0x3cf4a875	0.029865483
35	0x3d5c8b84	0.05384399
36	0xbb9b4ec4	-0.004739614
37	0xbd934852	-0.071915284
38	0xbd6ad5b6	-0.057332717
39	0xbd19d997	-0.037561025
40	0xbc1a92e2	-0.009434434
41	0x3d2c3694	0.042044237
42	0xbb914981	-0.004433811
43	0x3d042a7c	0.03226708
44	0xbca452ed	-0.020059073
45	0x3d7b4181	0.061341766
46	0xbcc88cee	-0.024481263
47	0xbc54b121	-0.012981684
48	0xbcf9d38c	-0.030496381
49	0x3aa19e08	0.0012330422
50	0xbd65a1f1	-0.056062642
51	0xbd9bab19	-0.07600994
52	0xbd84c51b	-0.064829074
53	0xbd9bc5df	-0.076061
54	0xbd4cf60d	-0.05003934
55	0x3d2d8956	0.042367302
56	0xbc1f800a	-0.009735117
57	0x3b552039	0.0032520427
58	0xbd28acbf	-0.04118037
59	0xbc34e346	-0.011040514
60	0x3cfe9205	0.031075487
61	0xbce6ea48	-0.028187886
62	0xbd3df3ff	-0.04637527
63	0xbd94c800	-0.072647095

bn3.weight f4 [64]
0	0x3f779f02	0.96727
1	0x3f8d94ed	1.1061074
2	0x3f9d7668	1.230176
3	0x3f8ef6a9	1.1169025
4	0x3f64015e	0.89064586
5	0x3f79c653	0.97568244
6	0x3f9361f9	1.1514274
7	0x3f94e90a	1.1633618
8	0x3f94129d	1.156818
9	0x3f8591e7	1.0435151
10	0x3f706ef7	0.9391932
11	0x3f854f6e	1.0414865
12	0x3fa15563	1.2604183
13	0x3f8f0129	1.1172229
14	0x3f70741b	0.9392716
15	0x3f947ea0	1.1601143
16	0x3f67fbba	0.9061848
17	0x3f7d8c32	0.99042046
18	0x3f7e11e7	0.99246067
19	0x3f972db0	1.1810818
20	0x3f887ce3	1.0663112
21	0x3f8ac53c	1.0841441
22	0x3f907cfd	1.1288143
23	0x3f80dfce	1.00683
24	0x3f7f9b24	0.998461
25	0x3f92671f	1.143772
26	0x3f7b3b0c	0.98136973
27	0x3f80867a	1.0041039
28	0x3f90a696	1.1300838
29	0x3f824175	1.0176226
30	0x3f92f873	1.1482071
31	0x3f60a9a5	0.87758857
32	0x3f87b243	1.0601276
33	0x3f76595a	0.9623009
34	0x3f89962c	1.0748954
35	0x3f97621a	1.1826813
36	0x3f888b3a	1.0667489
37	0x3f90033e	1.125099
38	0x3f927a91	1.1443654
39	0x3f6fab78	0.93621016
40	0x3f868858	1.0510359
41	0x3f8a6fbd	1.081535
42	0x3f9a6df9	1.2064811
43	0x3f8bcdc2	1.0922167
44	0x3f826dba	1.0189736
45	0x3f744c4a	0.9542891
46	0x3f7be2c7	0.9839291
47	0x3f84b449	1.0367519
48	0x3f90974f	1.1296176
49	0x3f922f2e	1.1420648
50	0x3f8a847f	1.0821685
51	0x3f847839	1.0349189
52	0x3f6d610a	0.92726195
53	0x3f825d53	1.018473
54	0x3f9e94d7	1.2389172
55	0x3f89a369	1.0752994
56	0x3f765b60	0.9623318
57	0x3f7c2078	0.98487043
58	0x3f6e7c28	0.931582
59	0x3f8fdfcf	1.1240176
60	0x3f984b7f	1.189804
61	0x3f892ee1	1.0717431
62	0x3f8d87d7	1.105708
63	0x3f833bec	1.0252662

bn3.bias f4 [64]
0	0xbdf9a2a7	-0.121892266
1	0xbe0e2ac6	-0.13883504
2	0xbdc2ac74	-0.09505549
3	0xbd88737d	-0.06662653
4	0xbe59cdd9	-0.21269931
5	0xbdbe31d5	-0.092868485
6	0xbe60c3d6	-0.21949705
7	0xbd931af4	-0.07182875
8	0xbd9a079a	-0.07520981
9	0xbe1c9b85	-0.15293701
10	0xbdf5f31c	-0.1200926
11	0xbe08fd2e	-0.1337783
12	0xbe1170d2	-0.14203194
13	0xbd88d242	-0.066807285
14	0xbdff3248	-0.12460762
15	0xbd6c4b51	-0.057689015
16	0xbd557a55	-0.052118618
17	0xbdd71c31	-0.10503424
18	0xbe575362	-0.21027902
19	0xbe76ff04	-0.24120718
20	0x3aa4e79b	0.0012581231
21	0xbe4ad089	-0.19806112
22	0xbe486b37	-0.19572149
23	0xbdf9bffa	-0.1219482
24	0xbd4e2993	-0.050332617
25	0xbe46e4ac	-0.19423169
26	0xbe2bf139	-0.16791238
27	0x3cdc2a03	0.026875501
28	0xbe2aa95b	-0.16666166
29	0xbe2b76dc	-0.1674456
30	0xbd42551a	-0.04744444
31	0xbe333b2f	-0.17503045
32	0xbe31745c	-0.17329544
33	0xbe5a848f	-0.2133963
34	0xbe47e248	-0.19519913
35	0xbdf415c0	-0.11918211
36	0xbdf91897	-0.12162893
37	0xbe301b0c	-0.17197818
38	0xbe64f688	-0.22359669
39	0xbdfa9b3f	-0.12236642
40	0xbe0e6475	-0.13905509
41	0xbe59fb60	-0.21287298
42	0xbe2b8e5c	-0.16753525
43	0xbbb5d212	-0.005548724
44	0xbe3a37af	-0.18185304
45	0xbe19d1c4	-0.15021425
46	0xbdb78238	-0.08960384
47	0xbe0fd592	-0.14046314
48	0xbe3b45bc	-0.1828832
49	0xbe6e77b8	-0.23287857
50	0xbe28fee3	-0.16503482
51	0xbdcd8dc1	-0.10036803
52	0xbe608eaa	-0.21929422
53	0xbd8d5c88	-0.069024146
54	0xbdbba5aa	-0.09162457
55	0xbe82ae04	-0.25523388
56	0xbdede586	-0.11616044
57	0xbdfc7e9d	-0.12328837
58	0xbe73f37f	-0.23823355
59	0xbe647527	-0.22310315
60	0xbd80b0d7	-0.062837295
61	0xbe0ff5ca	-0.14058605
62	0xbd7465a1	-0.059667233
63	0xbe2259ba	-0.1585454

bn3.running_mean f4 [64]
0	0xbf019fb7	-0.5063433
1	0x3eee3dbf	0.46531484
2	0x3fd1d958	1.6394453
3	0x3f0538c4	0.5203974
4	0x3f4458a8	0.7669778
5	0xc027b291	-2.6202738
6	0x3fe1ccae	1.7640588
7	0xbf121ca4	-0.5707495
8	0xbf517a23	-0.8182699
9	0x3f4daf60	0.80345726
10	0xbfa9c633	-1.3263611
11	0xbf0aa9eb	-0.54165524
12	0xbfd538df	-1.6657981
13	0xc0345491	-2.8176615
14	0xbe840a91	-0.25789312
15	0x3f6f8d7a	0.9357525
16	0xc00da32f	-2.213085
17	0x3da69761	0.08134342
18	0x3f816be6	1.0111053
19	0xbfc96dc4	-1.5736623
20	0xc00ad333	-2.1691406
21	0x3fd18a92	1.6370413
22	0x3f380346	0.71879995
23	0x3c3fa59a	0.011697197
24	0x3da615e7	0.08109646
25	0xbffcbbbf	-1.9744796
26	0xbf68c7a1	-0.9092961
27	0x3fabe782	1.3430026
28	0xbed94088	-0.42432046
29	0xbe20eee2	-0.15716127
30	0xbea64fe4	-0.32482827
31	0x3f841526	1.0318954
32	0xbe1207ac	-0.14260739
33	0x3f08252c	0.5318172
34	0xbf77473b	-0.96593064
35	0x3e1350af	0.14386247
36	0xbf937ecd	-1.1523072
37	0x3eda32a5	0.42616764
38	0xbe720e7a	-0.23638335
39	0xbd3e93e1	-0.046527747
40	0xbf4d05ff	-0.80087274
41	0x3fc45fc2	1.5341723
42	0x3f904c7c	1.1273341
43	0xc04452ef	-3.0675619
44	0x3f4710b5	0.7775987
45	0xbf0c5fd3	-0.54833716
46	0x3c874d63	0.016516393
47	0xbd5ff889	-0.05468038
48	0xbf0e5667	-0.5560059
49	0x3facb52c	1.3492789
50	0xbf21c68b	-0.6319358
51	0xbf3a0d2d	-0.72676355
52	0xbfa4db2f	-1.287939
53	0x3fb29583	1.3951877
54	0xbde0cbbb	-0.109763585
55	0xc00c6621	-2.1937335
56	0xbf38c69b	-0.7217805
57	0x3f443644	0.766453
58	0x3ea2a853	0.31769046
59	0xbf255f92	-0.64598954
60	0xc0246a01	-2.56897
61	0x3eaaf52b	0.33390173
62	0xc009b179	-2.151457
63	0x3ee872af	0.45399997

bn3.running_var f4 [64]
0	0x424aadc0	50.669678
1	0x427cc7d6	63.195152
2	0x42f58401	122.75782
3	0x4242f595	48.739826
4	0x42793816	62.30477
5	0x425f4e1b	55.826275
6	0x42b00ee9	88.02912
7	0x42046938	33.102753
8	0x425a9834	54.648636
9	0x424a62ae	50.596367
10	0x422608e6	41.50869
11	0x41fd7ccf	31.685942
12	0x424c0ad7	51.010586
13	0x42dc2580	110.07324
14	0x427bfa77	62.994595
15	0x42c669bb	99.206505
16	0x426f9459	59.89487
17	0x426ee125	59.719868
18	0x41f428ec	30.519981
19	0x421d2468	39.285553
20	0x430009fe	128.03903
21	0x421e1112	39.51667
22	0x42303ee1	44.061405
23	0x422a0479	42.504368
24	0x422d44f2	43.31733
25	0x4230b0aa	44.172523
26	0x4269cf03	58.45216
27	0x42814ad9	64.64619
28	0x425afdaa	54.74772
29	0x422cee19	43.232517
30	0x425e33d6	55.55062
31	0x4203f769	32.99161
32	0x425272f7	52.61227
33	0x42710872	60.258247
34	0x4215b804	37.429703
35	0x4222d785	40.71047
36	0x425985d5	54.380695
37	0x41ee4a7d	29.786371
38	0x42482c39	50.043186
39	0x42101f9d	36.030872
40	0x420440dc	33.06334
41	0x42453df1	49.31049
42	0x420e4872	35.570747
43	0x42affb7f	87.9912
44	0x4216d23b	37.705303
45	0x42976b65	75.709755
46	0x428015a7	64.04229
47	0x41ded8e0	27.855896
48	0x422dab27	43.41714
49	0x4229abf2	42.417915
50	0x422deae3	43.47938
51	0x4265ae93	57.420483
52	0x42339608	44.896515
53	0x423c41d7	47.064297
54	0x429a6045	77.18803
55	0x4259451c	54.31749
56	0x424c988a	51.148964
57	0x424f4a7b	51.822735
58	0x423a3972	46.5561
59	0x427250f4	60.579056
60	0x4301c00e	129.75021
61	0x4222cae9	40.698154
62	0x43030fee	131.06223
63	0x42248985	41.134296
